<?xml version="1.0"?>
<net name="onnx_Frontend_IR" version="11">
	<layers>
		<layer id="0" name="images" type="Parameter" version="opset1">
			<data shape="1,3,320,320" element_type="f32" />
			<output>
				<port id="0" precision="FP32" names="images">
					<dim>1</dim>
					<dim>3</dim>
					<dim>320</dim>
					<dim>320</dim>
				</port>
			</output>
		</layer>
		<layer id="1" name="/model.23/Constant_12_output_0" type="Const" version="opset1">
			<data element_type="f16" shape="1, 2, 2100" offset="0" size="8400" />
			<output>
				<port id="0" precision="FP16" names="/model.23/Constant_12_output_0">
					<dim>1</dim>
					<dim>2</dim>
					<dim>2100</dim>
				</port>
			</output>
		</layer>
		<layer id="2" name="graph_input_cast0" type="Convert" version="opset1">
			<data destination_type="f16" />
			<input>
				<port id="0" precision="FP32">
					<dim>1</dim>
					<dim>3</dim>
					<dim>320</dim>
					<dim>320</dim>
				</port>
			</input>
			<output>
				<port id="1" precision="FP16" names="graph_input_cast_0">
					<dim>1</dim>
					<dim>3</dim>
					<dim>320</dim>
					<dim>320</dim>
				</port>
			</output>
		</layer>
		<layer id="3" name="graph_input_cast0/fq_output_0/input_low" type="Const" version="opset1">
			<data element_type="f16" shape="" offset="8400" size="2" />
			<output>
				<port id="0" precision="FP16" />
			</output>
		</layer>
		<layer id="4" name="graph_input_cast0/fq_output_0/input_high" type="Const" version="opset1">
			<data element_type="f16" shape="" offset="8402" size="2" />
			<output>
				<port id="0" precision="FP16" />
			</output>
		</layer>
		<layer id="5" name="graph_input_cast0/fq_output_0/output_low" type="Const" version="opset1">
			<data element_type="f16" shape="" offset="8400" size="2" />
			<output>
				<port id="0" precision="FP16" />
			</output>
		</layer>
		<layer id="6" name="graph_input_cast0/fq_output_0/output_high" type="Const" version="opset1">
			<data element_type="f16" shape="" offset="8402" size="2" />
			<output>
				<port id="0" precision="FP16" />
			</output>
		</layer>
		<layer id="7" name="graph_input_cast0/fq_output_0" type="FakeQuantize" version="opset1">
			<data levels="256" auto_broadcast="numpy" />
			<input>
				<port id="0" precision="FP16">
					<dim>1</dim>
					<dim>3</dim>
					<dim>320</dim>
					<dim>320</dim>
				</port>
				<port id="1" precision="FP16" />
				<port id="2" precision="FP16" />
				<port id="3" precision="FP16" />
				<port id="4" precision="FP16" />
			</input>
			<output>
				<port id="5" precision="FP16">
					<dim>1</dim>
					<dim>3</dim>
					<dim>320</dim>
					<dim>320</dim>
				</port>
			</output>
		</layer>
		<layer id="8" name="Constant_578956" type="Const" version="opset1">
			<data element_type="i8" shape="16, 3, 3, 3" offset="8404" size="432" />
			<output>
				<port id="0" precision="I8">
					<dim>16</dim>
					<dim>3</dim>
					<dim>3</dim>
					<dim>3</dim>
				</port>
			</output>
		</layer>
		<layer id="9" name="Convert_578957" type="Convert" version="opset1">
			<data destination_type="f16" />
			<input>
				<port id="0" precision="I8">
					<dim>16</dim>
					<dim>3</dim>
					<dim>3</dim>
					<dim>3</dim>
				</port>
			</input>
			<output>
				<port id="1" precision="FP16">
					<dim>16</dim>
					<dim>3</dim>
					<dim>3</dim>
					<dim>3</dim>
				</port>
			</output>
		</layer>
		<layer id="10" name="Constant_578958" type="Const" version="opset1">
			<data element_type="f16" shape="16, 1, 1, 1" offset="8836" size="32" />
			<output>
				<port id="0" precision="FP16">
					<dim>16</dim>
					<dim>1</dim>
					<dim>1</dim>
					<dim>1</dim>
				</port>
			</output>
		</layer>
		<layer id="11" name="/model.0/conv/Conv/WithoutBiases/fq_weights_1" type="Multiply" version="opset1">
			<data auto_broadcast="numpy" />
			<input>
				<port id="0" precision="FP16">
					<dim>16</dim>
					<dim>3</dim>
					<dim>3</dim>
					<dim>3</dim>
				</port>
				<port id="1" precision="FP16">
					<dim>16</dim>
					<dim>1</dim>
					<dim>1</dim>
					<dim>1</dim>
				</port>
			</input>
			<output>
				<port id="2" precision="FP16">
					<dim>16</dim>
					<dim>3</dim>
					<dim>3</dim>
					<dim>3</dim>
				</port>
			</output>
		</layer>
		<layer id="12" name="/model.0/conv/Conv/WithoutBiases" type="Convolution" version="opset1">
			<data strides="2, 2" dilations="1, 1" pads_begin="1, 1" pads_end="1, 1" auto_pad="explicit" />
			<input>
				<port id="0" precision="FP16">
					<dim>1</dim>
					<dim>3</dim>
					<dim>320</dim>
					<dim>320</dim>
				</port>
				<port id="1" precision="FP16">
					<dim>16</dim>
					<dim>3</dim>
					<dim>3</dim>
					<dim>3</dim>
				</port>
			</input>
			<output>
				<port id="2" precision="FP16">
					<dim>1</dim>
					<dim>16</dim>
					<dim>160</dim>
					<dim>160</dim>
				</port>
			</output>
		</layer>
		<layer id="13" name="Reshape_16" type="Const" version="opset1">
			<data element_type="f16" shape="1, 16, 1, 1" offset="8868" size="32" />
			<output>
				<port id="0" precision="FP16">
					<dim>1</dim>
					<dim>16</dim>
					<dim>1</dim>
					<dim>1</dim>
				</port>
			</output>
		</layer>
		<layer id="14" name="/model.0/conv/Conv" type="Add" version="opset1">
			<data auto_broadcast="numpy" />
			<input>
				<port id="0" precision="FP16">
					<dim>1</dim>
					<dim>16</dim>
					<dim>160</dim>
					<dim>160</dim>
				</port>
				<port id="1" precision="FP16">
					<dim>1</dim>
					<dim>16</dim>
					<dim>1</dim>
					<dim>1</dim>
				</port>
			</input>
			<output>
				<port id="2" precision="FP16" names="/model.0/conv/Conv_output_0">
					<dim>1</dim>
					<dim>16</dim>
					<dim>160</dim>
					<dim>160</dim>
				</port>
			</output>
		</layer>
		<layer id="15" name="/model.0/act/Mul" type="Swish" version="opset4">
			<input>
				<port id="0" precision="FP16">
					<dim>1</dim>
					<dim>16</dim>
					<dim>160</dim>
					<dim>160</dim>
				</port>
			</input>
			<output>
				<port id="1" precision="FP16" names="/model.0/act/Mul_output_0">
					<dim>1</dim>
					<dim>16</dim>
					<dim>160</dim>
					<dim>160</dim>
				</port>
			</output>
		</layer>
		<layer id="16" name="/model.0/act/Mul/fq_output_0/input_low" type="Const" version="opset1">
			<data element_type="f16" shape="" offset="8900" size="2" />
			<output>
				<port id="0" precision="FP16" />
			</output>
		</layer>
		<layer id="17" name="/model.0/act/Mul/fq_output_0/input_high" type="Const" version="opset1">
			<data element_type="f16" shape="" offset="8902" size="2" />
			<output>
				<port id="0" precision="FP16" />
			</output>
		</layer>
		<layer id="18" name="/model.0/act/Mul/fq_output_0/output_low" type="Const" version="opset1">
			<data element_type="f16" shape="" offset="8900" size="2" />
			<output>
				<port id="0" precision="FP16" />
			</output>
		</layer>
		<layer id="19" name="/model.0/act/Mul/fq_output_0/output_high" type="Const" version="opset1">
			<data element_type="f16" shape="" offset="8902" size="2" />
			<output>
				<port id="0" precision="FP16" />
			</output>
		</layer>
		<layer id="20" name="/model.0/act/Mul/fq_output_0" type="FakeQuantize" version="opset1">
			<data levels="256" auto_broadcast="numpy" />
			<input>
				<port id="0" precision="FP16">
					<dim>1</dim>
					<dim>16</dim>
					<dim>160</dim>
					<dim>160</dim>
				</port>
				<port id="1" precision="FP16" />
				<port id="2" precision="FP16" />
				<port id="3" precision="FP16" />
				<port id="4" precision="FP16" />
			</input>
			<output>
				<port id="5" precision="FP16">
					<dim>1</dim>
					<dim>16</dim>
					<dim>160</dim>
					<dim>160</dim>
				</port>
			</output>
		</layer>
		<layer id="21" name="Constant_578960" type="Const" version="opset1">
			<data element_type="i8" shape="32, 16, 3, 3" offset="8904" size="4608" />
			<output>
				<port id="0" precision="I8">
					<dim>32</dim>
					<dim>16</dim>
					<dim>3</dim>
					<dim>3</dim>
				</port>
			</output>
		</layer>
		<layer id="22" name="Convert_578961" type="Convert" version="opset1">
			<data destination_type="f16" />
			<input>
				<port id="0" precision="I8">
					<dim>32</dim>
					<dim>16</dim>
					<dim>3</dim>
					<dim>3</dim>
				</port>
			</input>
			<output>
				<port id="1" precision="FP16">
					<dim>32</dim>
					<dim>16</dim>
					<dim>3</dim>
					<dim>3</dim>
				</port>
			</output>
		</layer>
		<layer id="23" name="Constant_578962" type="Const" version="opset1">
			<data element_type="f16" shape="32, 1, 1, 1" offset="13512" size="64" />
			<output>
				<port id="0" precision="FP16">
					<dim>32</dim>
					<dim>1</dim>
					<dim>1</dim>
					<dim>1</dim>
				</port>
			</output>
		</layer>
		<layer id="24" name="/model.1/conv/Conv/WithoutBiases/fq_weights_1" type="Multiply" version="opset1">
			<data auto_broadcast="numpy" />
			<input>
				<port id="0" precision="FP16">
					<dim>32</dim>
					<dim>16</dim>
					<dim>3</dim>
					<dim>3</dim>
				</port>
				<port id="1" precision="FP16">
					<dim>32</dim>
					<dim>1</dim>
					<dim>1</dim>
					<dim>1</dim>
				</port>
			</input>
			<output>
				<port id="2" precision="FP16">
					<dim>32</dim>
					<dim>16</dim>
					<dim>3</dim>
					<dim>3</dim>
				</port>
			</output>
		</layer>
		<layer id="25" name="/model.1/conv/Conv/WithoutBiases" type="Convolution" version="opset1">
			<data strides="2, 2" dilations="1, 1" pads_begin="1, 1" pads_end="1, 1" auto_pad="explicit" />
			<input>
				<port id="0" precision="FP16">
					<dim>1</dim>
					<dim>16</dim>
					<dim>160</dim>
					<dim>160</dim>
				</port>
				<port id="1" precision="FP16">
					<dim>32</dim>
					<dim>16</dim>
					<dim>3</dim>
					<dim>3</dim>
				</port>
			</input>
			<output>
				<port id="2" precision="FP16">
					<dim>1</dim>
					<dim>32</dim>
					<dim>80</dim>
					<dim>80</dim>
				</port>
			</output>
		</layer>
		<layer id="26" name="Reshape_33" type="Const" version="opset1">
			<data element_type="f16" shape="1, 32, 1, 1" offset="13576" size="64" />
			<output>
				<port id="0" precision="FP16">
					<dim>1</dim>
					<dim>32</dim>
					<dim>1</dim>
					<dim>1</dim>
				</port>
			</output>
		</layer>
		<layer id="27" name="/model.1/conv/Conv" type="Add" version="opset1">
			<data auto_broadcast="numpy" />
			<input>
				<port id="0" precision="FP16">
					<dim>1</dim>
					<dim>32</dim>
					<dim>80</dim>
					<dim>80</dim>
				</port>
				<port id="1" precision="FP16">
					<dim>1</dim>
					<dim>32</dim>
					<dim>1</dim>
					<dim>1</dim>
				</port>
			</input>
			<output>
				<port id="2" precision="FP16" names="/model.1/conv/Conv_output_0">
					<dim>1</dim>
					<dim>32</dim>
					<dim>80</dim>
					<dim>80</dim>
				</port>
			</output>
		</layer>
		<layer id="28" name="/model.1/act/Mul" type="Swish" version="opset4">
			<input>
				<port id="0" precision="FP16">
					<dim>1</dim>
					<dim>32</dim>
					<dim>80</dim>
					<dim>80</dim>
				</port>
			</input>
			<output>
				<port id="1" precision="FP16" names="/model.1/act/Mul_output_0">
					<dim>1</dim>
					<dim>32</dim>
					<dim>80</dim>
					<dim>80</dim>
				</port>
			</output>
		</layer>
		<layer id="29" name="/model.1/act/Mul/fq_output_0/input_low" type="Const" version="opset1">
			<data element_type="f16" shape="" offset="13640" size="2" />
			<output>
				<port id="0" precision="FP16" />
			</output>
		</layer>
		<layer id="30" name="/model.1/act/Mul/fq_output_0/input_high" type="Const" version="opset1">
			<data element_type="f16" shape="" offset="13642" size="2" />
			<output>
				<port id="0" precision="FP16" />
			</output>
		</layer>
		<layer id="31" name="/model.1/act/Mul/fq_output_0/output_low" type="Const" version="opset1">
			<data element_type="f16" shape="" offset="13640" size="2" />
			<output>
				<port id="0" precision="FP16" />
			</output>
		</layer>
		<layer id="32" name="/model.1/act/Mul/fq_output_0/output_high" type="Const" version="opset1">
			<data element_type="f16" shape="" offset="13642" size="2" />
			<output>
				<port id="0" precision="FP16" />
			</output>
		</layer>
		<layer id="33" name="/model.1/act/Mul/fq_output_0" type="FakeQuantize" version="opset1">
			<data levels="256" auto_broadcast="numpy" />
			<input>
				<port id="0" precision="FP16">
					<dim>1</dim>
					<dim>32</dim>
					<dim>80</dim>
					<dim>80</dim>
				</port>
				<port id="1" precision="FP16" />
				<port id="2" precision="FP16" />
				<port id="3" precision="FP16" />
				<port id="4" precision="FP16" />
			</input>
			<output>
				<port id="5" precision="FP16">
					<dim>1</dim>
					<dim>32</dim>
					<dim>80</dim>
					<dim>80</dim>
				</port>
			</output>
		</layer>
		<layer id="34" name="Constant_578964" type="Const" version="opset1">
			<data element_type="i8" shape="32, 32, 1, 1" offset="13644" size="1024" />
			<output>
				<port id="0" precision="I8">
					<dim>32</dim>
					<dim>32</dim>
					<dim>1</dim>
					<dim>1</dim>
				</port>
			</output>
		</layer>
		<layer id="35" name="Convert_578965" type="Convert" version="opset1">
			<data destination_type="f16" />
			<input>
				<port id="0" precision="I8">
					<dim>32</dim>
					<dim>32</dim>
					<dim>1</dim>
					<dim>1</dim>
				</port>
			</input>
			<output>
				<port id="1" precision="FP16">
					<dim>32</dim>
					<dim>32</dim>
					<dim>1</dim>
					<dim>1</dim>
				</port>
			</output>
		</layer>
		<layer id="36" name="Constant_578966" type="Const" version="opset1">
			<data element_type="f16" shape="32, 1, 1, 1" offset="14668" size="64" />
			<output>
				<port id="0" precision="FP16">
					<dim>32</dim>
					<dim>1</dim>
					<dim>1</dim>
					<dim>1</dim>
				</port>
			</output>
		</layer>
		<layer id="37" name="/model.2/cv1/conv/Conv/WithoutBiases/fq_weights_1" type="Multiply" version="opset1">
			<data auto_broadcast="numpy" />
			<input>
				<port id="0" precision="FP16">
					<dim>32</dim>
					<dim>32</dim>
					<dim>1</dim>
					<dim>1</dim>
				</port>
				<port id="1" precision="FP16">
					<dim>32</dim>
					<dim>1</dim>
					<dim>1</dim>
					<dim>1</dim>
				</port>
			</input>
			<output>
				<port id="2" precision="FP16">
					<dim>32</dim>
					<dim>32</dim>
					<dim>1</dim>
					<dim>1</dim>
				</port>
			</output>
		</layer>
		<layer id="38" name="/model.2/cv1/conv/Conv/WithoutBiases" type="Convolution" version="opset1">
			<data strides="1, 1" dilations="1, 1" pads_begin="0, 0" pads_end="0, 0" auto_pad="explicit" />
			<input>
				<port id="0" precision="FP16">
					<dim>1</dim>
					<dim>32</dim>
					<dim>80</dim>
					<dim>80</dim>
				</port>
				<port id="1" precision="FP16">
					<dim>32</dim>
					<dim>32</dim>
					<dim>1</dim>
					<dim>1</dim>
				</port>
			</input>
			<output>
				<port id="2" precision="FP16">
					<dim>1</dim>
					<dim>32</dim>
					<dim>80</dim>
					<dim>80</dim>
				</port>
			</output>
		</layer>
		<layer id="39" name="Reshape_50" type="Const" version="opset1">
			<data element_type="f16" shape="1, 32, 1, 1" offset="14732" size="64" />
			<output>
				<port id="0" precision="FP16">
					<dim>1</dim>
					<dim>32</dim>
					<dim>1</dim>
					<dim>1</dim>
				</port>
			</output>
		</layer>
		<layer id="40" name="/model.2/cv1/conv/Conv" type="Add" version="opset1">
			<data auto_broadcast="numpy" />
			<input>
				<port id="0" precision="FP16">
					<dim>1</dim>
					<dim>32</dim>
					<dim>80</dim>
					<dim>80</dim>
				</port>
				<port id="1" precision="FP16">
					<dim>1</dim>
					<dim>32</dim>
					<dim>1</dim>
					<dim>1</dim>
				</port>
			</input>
			<output>
				<port id="2" precision="FP16" names="/model.2/cv1/conv/Conv_output_0">
					<dim>1</dim>
					<dim>32</dim>
					<dim>80</dim>
					<dim>80</dim>
				</port>
			</output>
		</layer>
		<layer id="41" name="/model.2/cv1/act/Mul" type="Swish" version="opset4">
			<input>
				<port id="0" precision="FP16">
					<dim>1</dim>
					<dim>32</dim>
					<dim>80</dim>
					<dim>80</dim>
				</port>
			</input>
			<output>
				<port id="1" precision="FP16" names="/model.2/cv1/act/Mul_output_0">
					<dim>1</dim>
					<dim>32</dim>
					<dim>80</dim>
					<dim>80</dim>
				</port>
			</output>
		</layer>
		<layer id="42" name="/model.2/cv1/act/Mul/fq_output_0/input_low" type="Const" version="opset1">
			<data element_type="f16" shape="" offset="14796" size="2" />
			<output>
				<port id="0" precision="FP16" />
			</output>
		</layer>
		<layer id="43" name="/model.2/cv1/act/Mul/fq_output_0/input_high" type="Const" version="opset1">
			<data element_type="f16" shape="" offset="14798" size="2" />
			<output>
				<port id="0" precision="FP16" />
			</output>
		</layer>
		<layer id="44" name="/model.2/cv1/act/Mul/fq_output_0/output_low" type="Const" version="opset1">
			<data element_type="f16" shape="" offset="14796" size="2" />
			<output>
				<port id="0" precision="FP16" />
			</output>
		</layer>
		<layer id="45" name="/model.2/cv1/act/Mul/fq_output_0/output_high" type="Const" version="opset1">
			<data element_type="f16" shape="" offset="14798" size="2" />
			<output>
				<port id="0" precision="FP16" />
			</output>
		</layer>
		<layer id="46" name="/model.2/cv1/act/Mul/fq_output_0" type="FakeQuantize" version="opset1">
			<data levels="256" auto_broadcast="numpy" />
			<input>
				<port id="0" precision="FP16">
					<dim>1</dim>
					<dim>32</dim>
					<dim>80</dim>
					<dim>80</dim>
				</port>
				<port id="1" precision="FP16" />
				<port id="2" precision="FP16" />
				<port id="3" precision="FP16" />
				<port id="4" precision="FP16" />
			</input>
			<output>
				<port id="5" precision="FP16">
					<dim>1</dim>
					<dim>32</dim>
					<dim>80</dim>
					<dim>80</dim>
				</port>
			</output>
		</layer>
		<layer id="47" name="Constant_55" type="Const" version="opset1">
			<data element_type="i64" shape="" offset="14800" size="8" />
			<output>
				<port id="0" precision="I64" />
			</output>
		</layer>
		<layer id="48" name="onnx::Split_215" type="Const" version="opset1">
			<data element_type="i64" shape="2" offset="14808" size="16" />
			<output>
				<port id="0" precision="I64" names="onnx::Split_215">
					<dim>2</dim>
				</port>
			</output>
		</layer>
		<layer id="49" name="/model.2/Split" type="VariadicSplit" version="opset1">
			<input>
				<port id="0" precision="FP16">
					<dim>1</dim>
					<dim>32</dim>
					<dim>80</dim>
					<dim>80</dim>
				</port>
				<port id="1" precision="I64" />
				<port id="2" precision="I64">
					<dim>2</dim>
				</port>
			</input>
			<output>
				<port id="3" precision="FP16" names="/model.2/Split_output_0">
					<dim>1</dim>
					<dim>16</dim>
					<dim>80</dim>
					<dim>80</dim>
				</port>
				<port id="4" precision="FP16" names="/model.2/Split_output_1">
					<dim>1</dim>
					<dim>16</dim>
					<dim>80</dim>
					<dim>80</dim>
				</port>
			</output>
		</layer>
		<layer id="50" name="Constant_578968" type="Const" version="opset1">
			<data element_type="i8" shape="8, 16, 3, 3" offset="14824" size="1152" />
			<output>
				<port id="0" precision="I8">
					<dim>8</dim>
					<dim>16</dim>
					<dim>3</dim>
					<dim>3</dim>
				</port>
			</output>
		</layer>
		<layer id="51" name="Convert_578969" type="Convert" version="opset1">
			<data destination_type="f16" />
			<input>
				<port id="0" precision="I8">
					<dim>8</dim>
					<dim>16</dim>
					<dim>3</dim>
					<dim>3</dim>
				</port>
			</input>
			<output>
				<port id="1" precision="FP16">
					<dim>8</dim>
					<dim>16</dim>
					<dim>3</dim>
					<dim>3</dim>
				</port>
			</output>
		</layer>
		<layer id="52" name="Constant_578970" type="Const" version="opset1">
			<data element_type="f16" shape="8, 1, 1, 1" offset="15976" size="16" />
			<output>
				<port id="0" precision="FP16">
					<dim>8</dim>
					<dim>1</dim>
					<dim>1</dim>
					<dim>1</dim>
				</port>
			</output>
		</layer>
		<layer id="53" name="/model.2/m.0/cv1/conv/Conv/WithoutBiases/fq_weights_1" type="Multiply" version="opset1">
			<data auto_broadcast="numpy" />
			<input>
				<port id="0" precision="FP16">
					<dim>8</dim>
					<dim>16</dim>
					<dim>3</dim>
					<dim>3</dim>
				</port>
				<port id="1" precision="FP16">
					<dim>8</dim>
					<dim>1</dim>
					<dim>1</dim>
					<dim>1</dim>
				</port>
			</input>
			<output>
				<port id="2" precision="FP16">
					<dim>8</dim>
					<dim>16</dim>
					<dim>3</dim>
					<dim>3</dim>
				</port>
			</output>
		</layer>
		<layer id="54" name="/model.2/m.0/cv1/conv/Conv/WithoutBiases" type="Convolution" version="opset1">
			<data strides="1, 1" dilations="1, 1" pads_begin="1, 1" pads_end="1, 1" auto_pad="explicit" />
			<input>
				<port id="0" precision="FP16">
					<dim>1</dim>
					<dim>16</dim>
					<dim>80</dim>
					<dim>80</dim>
				</port>
				<port id="1" precision="FP16">
					<dim>8</dim>
					<dim>16</dim>
					<dim>3</dim>
					<dim>3</dim>
				</port>
			</input>
			<output>
				<port id="2" precision="FP16">
					<dim>1</dim>
					<dim>8</dim>
					<dim>80</dim>
					<dim>80</dim>
				</port>
			</output>
		</layer>
		<layer id="55" name="Reshape_70" type="Const" version="opset1">
			<data element_type="f16" shape="1, 8, 1, 1" offset="15992" size="16" />
			<output>
				<port id="0" precision="FP16">
					<dim>1</dim>
					<dim>8</dim>
					<dim>1</dim>
					<dim>1</dim>
				</port>
			</output>
		</layer>
		<layer id="56" name="/model.2/m.0/cv1/conv/Conv" type="Add" version="opset1">
			<data auto_broadcast="numpy" />
			<input>
				<port id="0" precision="FP16">
					<dim>1</dim>
					<dim>8</dim>
					<dim>80</dim>
					<dim>80</dim>
				</port>
				<port id="1" precision="FP16">
					<dim>1</dim>
					<dim>8</dim>
					<dim>1</dim>
					<dim>1</dim>
				</port>
			</input>
			<output>
				<port id="2" precision="FP16" names="/model.2/m.0/cv1/conv/Conv_output_0">
					<dim>1</dim>
					<dim>8</dim>
					<dim>80</dim>
					<dim>80</dim>
				</port>
			</output>
		</layer>
		<layer id="57" name="/model.2/m.0/cv1/act/Mul" type="Swish" version="opset4">
			<input>
				<port id="0" precision="FP16">
					<dim>1</dim>
					<dim>8</dim>
					<dim>80</dim>
					<dim>80</dim>
				</port>
			</input>
			<output>
				<port id="1" precision="FP16" names="/model.2/m.0/cv1/act/Mul_output_0">
					<dim>1</dim>
					<dim>8</dim>
					<dim>80</dim>
					<dim>80</dim>
				</port>
			</output>
		</layer>
		<layer id="58" name="/model.2/m.0/cv1/act/Mul/fq_output_0/input_low" type="Const" version="opset1">
			<data element_type="f16" shape="" offset="16008" size="2" />
			<output>
				<port id="0" precision="FP16" />
			</output>
		</layer>
		<layer id="59" name="/model.2/m.0/cv1/act/Mul/fq_output_0/input_high" type="Const" version="opset1">
			<data element_type="f16" shape="" offset="16010" size="2" />
			<output>
				<port id="0" precision="FP16" />
			</output>
		</layer>
		<layer id="60" name="/model.2/m.0/cv1/act/Mul/fq_output_0/output_low" type="Const" version="opset1">
			<data element_type="f16" shape="" offset="16008" size="2" />
			<output>
				<port id="0" precision="FP16" />
			</output>
		</layer>
		<layer id="61" name="/model.2/m.0/cv1/act/Mul/fq_output_0/output_high" type="Const" version="opset1">
			<data element_type="f16" shape="" offset="16010" size="2" />
			<output>
				<port id="0" precision="FP16" />
			</output>
		</layer>
		<layer id="62" name="/model.2/m.0/cv1/act/Mul/fq_output_0" type="FakeQuantize" version="opset1">
			<data levels="256" auto_broadcast="numpy" />
			<input>
				<port id="0" precision="FP16">
					<dim>1</dim>
					<dim>8</dim>
					<dim>80</dim>
					<dim>80</dim>
				</port>
				<port id="1" precision="FP16" />
				<port id="2" precision="FP16" />
				<port id="3" precision="FP16" />
				<port id="4" precision="FP16" />
			</input>
			<output>
				<port id="5" precision="FP16">
					<dim>1</dim>
					<dim>8</dim>
					<dim>80</dim>
					<dim>80</dim>
				</port>
			</output>
		</layer>
		<layer id="63" name="Constant_578972" type="Const" version="opset1">
			<data element_type="i8" shape="16, 8, 3, 3" offset="16012" size="1152" />
			<output>
				<port id="0" precision="I8">
					<dim>16</dim>
					<dim>8</dim>
					<dim>3</dim>
					<dim>3</dim>
				</port>
			</output>
		</layer>
		<layer id="64" name="Convert_578973" type="Convert" version="opset1">
			<data destination_type="f16" />
			<input>
				<port id="0" precision="I8">
					<dim>16</dim>
					<dim>8</dim>
					<dim>3</dim>
					<dim>3</dim>
				</port>
			</input>
			<output>
				<port id="1" precision="FP16">
					<dim>16</dim>
					<dim>8</dim>
					<dim>3</dim>
					<dim>3</dim>
				</port>
			</output>
		</layer>
		<layer id="65" name="Constant_578974" type="Const" version="opset1">
			<data element_type="f16" shape="16, 1, 1, 1" offset="17164" size="32" />
			<output>
				<port id="0" precision="FP16">
					<dim>16</dim>
					<dim>1</dim>
					<dim>1</dim>
					<dim>1</dim>
				</port>
			</output>
		</layer>
		<layer id="66" name="/model.2/m.0/cv2/conv/Conv/WithoutBiases/fq_weights_1" type="Multiply" version="opset1">
			<data auto_broadcast="numpy" />
			<input>
				<port id="0" precision="FP16">
					<dim>16</dim>
					<dim>8</dim>
					<dim>3</dim>
					<dim>3</dim>
				</port>
				<port id="1" precision="FP16">
					<dim>16</dim>
					<dim>1</dim>
					<dim>1</dim>
					<dim>1</dim>
				</port>
			</input>
			<output>
				<port id="2" precision="FP16">
					<dim>16</dim>
					<dim>8</dim>
					<dim>3</dim>
					<dim>3</dim>
				</port>
			</output>
		</layer>
		<layer id="67" name="/model.2/m.0/cv2/conv/Conv/WithoutBiases" type="Convolution" version="opset1">
			<data strides="1, 1" dilations="1, 1" pads_begin="1, 1" pads_end="1, 1" auto_pad="explicit" />
			<input>
				<port id="0" precision="FP16">
					<dim>1</dim>
					<dim>8</dim>
					<dim>80</dim>
					<dim>80</dim>
				</port>
				<port id="1" precision="FP16">
					<dim>16</dim>
					<dim>8</dim>
					<dim>3</dim>
					<dim>3</dim>
				</port>
			</input>
			<output>
				<port id="2" precision="FP16">
					<dim>1</dim>
					<dim>16</dim>
					<dim>80</dim>
					<dim>80</dim>
				</port>
			</output>
		</layer>
		<layer id="68" name="Reshape_87" type="Const" version="opset1">
			<data element_type="f16" shape="1, 16, 1, 1" offset="17196" size="32" />
			<output>
				<port id="0" precision="FP16">
					<dim>1</dim>
					<dim>16</dim>
					<dim>1</dim>
					<dim>1</dim>
				</port>
			</output>
		</layer>
		<layer id="69" name="/model.2/m.0/cv2/conv/Conv" type="Add" version="opset1">
			<data auto_broadcast="numpy" />
			<input>
				<port id="0" precision="FP16">
					<dim>1</dim>
					<dim>16</dim>
					<dim>80</dim>
					<dim>80</dim>
				</port>
				<port id="1" precision="FP16">
					<dim>1</dim>
					<dim>16</dim>
					<dim>1</dim>
					<dim>1</dim>
				</port>
			</input>
			<output>
				<port id="2" precision="FP16" names="/model.2/m.0/cv2/conv/Conv_output_0">
					<dim>1</dim>
					<dim>16</dim>
					<dim>80</dim>
					<dim>80</dim>
				</port>
			</output>
		</layer>
		<layer id="70" name="/model.2/m.0/cv2/act/Mul" type="Swish" version="opset4">
			<input>
				<port id="0" precision="FP16">
					<dim>1</dim>
					<dim>16</dim>
					<dim>80</dim>
					<dim>80</dim>
				</port>
			</input>
			<output>
				<port id="1" precision="FP16" names="/model.2/m.0/cv2/act/Mul_output_0">
					<dim>1</dim>
					<dim>16</dim>
					<dim>80</dim>
					<dim>80</dim>
				</port>
			</output>
		</layer>
		<layer id="71" name="/model.2/m.0/cv2/act/Mul/fq_output_0/input_low" type="Const" version="opset1">
			<data element_type="f16" shape="" offset="17228" size="2" />
			<output>
				<port id="0" precision="FP16" />
			</output>
		</layer>
		<layer id="72" name="/model.2/m.0/cv2/act/Mul/fq_output_0/input_high" type="Const" version="opset1">
			<data element_type="f16" shape="" offset="17230" size="2" />
			<output>
				<port id="0" precision="FP16" />
			</output>
		</layer>
		<layer id="73" name="/model.2/m.0/cv2/act/Mul/fq_output_0/output_low" type="Const" version="opset1">
			<data element_type="f16" shape="" offset="17228" size="2" />
			<output>
				<port id="0" precision="FP16" />
			</output>
		</layer>
		<layer id="74" name="/model.2/m.0/cv2/act/Mul/fq_output_0/output_high" type="Const" version="opset1">
			<data element_type="f16" shape="" offset="17230" size="2" />
			<output>
				<port id="0" precision="FP16" />
			</output>
		</layer>
		<layer id="75" name="/model.2/m.0/cv2/act/Mul/fq_output_0" type="FakeQuantize" version="opset1">
			<data levels="256" auto_broadcast="numpy" />
			<input>
				<port id="0" precision="FP16">
					<dim>1</dim>
					<dim>16</dim>
					<dim>80</dim>
					<dim>80</dim>
				</port>
				<port id="1" precision="FP16" />
				<port id="2" precision="FP16" />
				<port id="3" precision="FP16" />
				<port id="4" precision="FP16" />
			</input>
			<output>
				<port id="5" precision="FP16">
					<dim>1</dim>
					<dim>16</dim>
					<dim>80</dim>
					<dim>80</dim>
				</port>
			</output>
		</layer>
		<layer id="76" name="/model.2/m.0/Add" type="Add" version="opset1">
			<data auto_broadcast="numpy" />
			<input>
				<port id="0" precision="FP16">
					<dim>1</dim>
					<dim>16</dim>
					<dim>80</dim>
					<dim>80</dim>
				</port>
				<port id="1" precision="FP16">
					<dim>1</dim>
					<dim>16</dim>
					<dim>80</dim>
					<dim>80</dim>
				</port>
			</input>
			<output>
				<port id="2" precision="FP16" names="/model.2/m.0/Add_output_0">
					<dim>1</dim>
					<dim>16</dim>
					<dim>80</dim>
					<dim>80</dim>
				</port>
			</output>
		</layer>
		<layer id="77" name="/model.2/m.0/Add/fq_output_0/input_low" type="Const" version="opset1">
			<data element_type="f16" shape="" offset="14796" size="2" />
			<output>
				<port id="0" precision="FP16" />
			</output>
		</layer>
		<layer id="78" name="/model.2/m.0/Add/fq_output_0/input_high" type="Const" version="opset1">
			<data element_type="f16" shape="" offset="14798" size="2" />
			<output>
				<port id="0" precision="FP16" />
			</output>
		</layer>
		<layer id="79" name="/model.2/m.0/Add/fq_output_0/output_low" type="Const" version="opset1">
			<data element_type="f16" shape="" offset="14796" size="2" />
			<output>
				<port id="0" precision="FP16" />
			</output>
		</layer>
		<layer id="80" name="/model.2/m.0/Add/fq_output_0/output_high" type="Const" version="opset1">
			<data element_type="f16" shape="" offset="14798" size="2" />
			<output>
				<port id="0" precision="FP16" />
			</output>
		</layer>
		<layer id="81" name="/model.2/m.0/Add/fq_output_0" type="FakeQuantize" version="opset1">
			<data levels="256" auto_broadcast="numpy" />
			<input>
				<port id="0" precision="FP16">
					<dim>1</dim>
					<dim>16</dim>
					<dim>80</dim>
					<dim>80</dim>
				</port>
				<port id="1" precision="FP16" />
				<port id="2" precision="FP16" />
				<port id="3" precision="FP16" />
				<port id="4" precision="FP16" />
			</input>
			<output>
				<port id="5" precision="FP16">
					<dim>1</dim>
					<dim>16</dim>
					<dim>80</dim>
					<dim>80</dim>
				</port>
			</output>
		</layer>
		<layer id="82" name="/model.2/Concat" type="Concat" version="opset1">
			<data axis="1" />
			<input>
				<port id="0" precision="FP16">
					<dim>1</dim>
					<dim>16</dim>
					<dim>80</dim>
					<dim>80</dim>
				</port>
				<port id="1" precision="FP16">
					<dim>1</dim>
					<dim>16</dim>
					<dim>80</dim>
					<dim>80</dim>
				</port>
				<port id="2" precision="FP16">
					<dim>1</dim>
					<dim>16</dim>
					<dim>80</dim>
					<dim>80</dim>
				</port>
			</input>
			<output>
				<port id="3" precision="FP16" names="/model.2/Concat_output_0">
					<dim>1</dim>
					<dim>48</dim>
					<dim>80</dim>
					<dim>80</dim>
				</port>
			</output>
		</layer>
		<layer id="83" name="Constant_578976" type="Const" version="opset1">
			<data element_type="i8" shape="64, 48, 1, 1" offset="17232" size="3072" />
			<output>
				<port id="0" precision="I8">
					<dim>64</dim>
					<dim>48</dim>
					<dim>1</dim>
					<dim>1</dim>
				</port>
			</output>
		</layer>
		<layer id="84" name="Convert_578977" type="Convert" version="opset1">
			<data destination_type="f16" />
			<input>
				<port id="0" precision="I8">
					<dim>64</dim>
					<dim>48</dim>
					<dim>1</dim>
					<dim>1</dim>
				</port>
			</input>
			<output>
				<port id="1" precision="FP16">
					<dim>64</dim>
					<dim>48</dim>
					<dim>1</dim>
					<dim>1</dim>
				</port>
			</output>
		</layer>
		<layer id="85" name="Constant_578978" type="Const" version="opset1">
			<data element_type="f16" shape="64, 1, 1, 1" offset="20304" size="128" />
			<output>
				<port id="0" precision="FP16">
					<dim>64</dim>
					<dim>1</dim>
					<dim>1</dim>
					<dim>1</dim>
				</port>
			</output>
		</layer>
		<layer id="86" name="/model.2/cv2/conv/Conv/WithoutBiases/fq_weights_1" type="Multiply" version="opset1">
			<data auto_broadcast="numpy" />
			<input>
				<port id="0" precision="FP16">
					<dim>64</dim>
					<dim>48</dim>
					<dim>1</dim>
					<dim>1</dim>
				</port>
				<port id="1" precision="FP16">
					<dim>64</dim>
					<dim>1</dim>
					<dim>1</dim>
					<dim>1</dim>
				</port>
			</input>
			<output>
				<port id="2" precision="FP16">
					<dim>64</dim>
					<dim>48</dim>
					<dim>1</dim>
					<dim>1</dim>
				</port>
			</output>
		</layer>
		<layer id="87" name="/model.2/cv2/conv/Conv/WithoutBiases" type="Convolution" version="opset1">
			<data strides="1, 1" dilations="1, 1" pads_begin="0, 0" pads_end="0, 0" auto_pad="explicit" />
			<input>
				<port id="0" precision="FP16">
					<dim>1</dim>
					<dim>48</dim>
					<dim>80</dim>
					<dim>80</dim>
				</port>
				<port id="1" precision="FP16">
					<dim>64</dim>
					<dim>48</dim>
					<dim>1</dim>
					<dim>1</dim>
				</port>
			</input>
			<output>
				<port id="2" precision="FP16">
					<dim>1</dim>
					<dim>64</dim>
					<dim>80</dim>
					<dim>80</dim>
				</port>
			</output>
		</layer>
		<layer id="88" name="Reshape_106" type="Const" version="opset1">
			<data element_type="f16" shape="1, 64, 1, 1" offset="20432" size="128" />
			<output>
				<port id="0" precision="FP16">
					<dim>1</dim>
					<dim>64</dim>
					<dim>1</dim>
					<dim>1</dim>
				</port>
			</output>
		</layer>
		<layer id="89" name="/model.2/cv2/conv/Conv" type="Add" version="opset1">
			<data auto_broadcast="numpy" />
			<input>
				<port id="0" precision="FP16">
					<dim>1</dim>
					<dim>64</dim>
					<dim>80</dim>
					<dim>80</dim>
				</port>
				<port id="1" precision="FP16">
					<dim>1</dim>
					<dim>64</dim>
					<dim>1</dim>
					<dim>1</dim>
				</port>
			</input>
			<output>
				<port id="2" precision="FP16" names="/model.2/cv2/conv/Conv_output_0">
					<dim>1</dim>
					<dim>64</dim>
					<dim>80</dim>
					<dim>80</dim>
				</port>
			</output>
		</layer>
		<layer id="90" name="/model.2/cv2/act/Mul" type="Swish" version="opset4">
			<input>
				<port id="0" precision="FP16">
					<dim>1</dim>
					<dim>64</dim>
					<dim>80</dim>
					<dim>80</dim>
				</port>
			</input>
			<output>
				<port id="1" precision="FP16" names="/model.2/cv2/act/Mul_output_0">
					<dim>1</dim>
					<dim>64</dim>
					<dim>80</dim>
					<dim>80</dim>
				</port>
			</output>
		</layer>
		<layer id="91" name="/model.2/cv2/act/Mul/fq_output_0/input_low" type="Const" version="opset1">
			<data element_type="f16" shape="" offset="20560" size="2" />
			<output>
				<port id="0" precision="FP16" />
			</output>
		</layer>
		<layer id="92" name="/model.2/cv2/act/Mul/fq_output_0/input_high" type="Const" version="opset1">
			<data element_type="f16" shape="" offset="20562" size="2" />
			<output>
				<port id="0" precision="FP16" />
			</output>
		</layer>
		<layer id="93" name="/model.2/cv2/act/Mul/fq_output_0/output_low" type="Const" version="opset1">
			<data element_type="f16" shape="" offset="20560" size="2" />
			<output>
				<port id="0" precision="FP16" />
			</output>
		</layer>
		<layer id="94" name="/model.2/cv2/act/Mul/fq_output_0/output_high" type="Const" version="opset1">
			<data element_type="f16" shape="" offset="20562" size="2" />
			<output>
				<port id="0" precision="FP16" />
			</output>
		</layer>
		<layer id="95" name="/model.2/cv2/act/Mul/fq_output_0" type="FakeQuantize" version="opset1">
			<data levels="256" auto_broadcast="numpy" />
			<input>
				<port id="0" precision="FP16">
					<dim>1</dim>
					<dim>64</dim>
					<dim>80</dim>
					<dim>80</dim>
				</port>
				<port id="1" precision="FP16" />
				<port id="2" precision="FP16" />
				<port id="3" precision="FP16" />
				<port id="4" precision="FP16" />
			</input>
			<output>
				<port id="5" precision="FP16">
					<dim>1</dim>
					<dim>64</dim>
					<dim>80</dim>
					<dim>80</dim>
				</port>
			</output>
		</layer>
		<layer id="96" name="Constant_578980" type="Const" version="opset1">
			<data element_type="i8" shape="64, 64, 3, 3" offset="20564" size="36864" />
			<output>
				<port id="0" precision="I8">
					<dim>64</dim>
					<dim>64</dim>
					<dim>3</dim>
					<dim>3</dim>
				</port>
			</output>
		</layer>
		<layer id="97" name="Convert_578981" type="Convert" version="opset1">
			<data destination_type="f16" />
			<input>
				<port id="0" precision="I8">
					<dim>64</dim>
					<dim>64</dim>
					<dim>3</dim>
					<dim>3</dim>
				</port>
			</input>
			<output>
				<port id="1" precision="FP16">
					<dim>64</dim>
					<dim>64</dim>
					<dim>3</dim>
					<dim>3</dim>
				</port>
			</output>
		</layer>
		<layer id="98" name="Constant_578982" type="Const" version="opset1">
			<data element_type="f16" shape="64, 1, 1, 1" offset="57428" size="128" />
			<output>
				<port id="0" precision="FP16">
					<dim>64</dim>
					<dim>1</dim>
					<dim>1</dim>
					<dim>1</dim>
				</port>
			</output>
		</layer>
		<layer id="99" name="/model.3/conv/Conv/WithoutBiases/fq_weights_1" type="Multiply" version="opset1">
			<data auto_broadcast="numpy" />
			<input>
				<port id="0" precision="FP16">
					<dim>64</dim>
					<dim>64</dim>
					<dim>3</dim>
					<dim>3</dim>
				</port>
				<port id="1" precision="FP16">
					<dim>64</dim>
					<dim>1</dim>
					<dim>1</dim>
					<dim>1</dim>
				</port>
			</input>
			<output>
				<port id="2" precision="FP16">
					<dim>64</dim>
					<dim>64</dim>
					<dim>3</dim>
					<dim>3</dim>
				</port>
			</output>
		</layer>
		<layer id="100" name="/model.3/conv/Conv/WithoutBiases" type="Convolution" version="opset1">
			<data strides="2, 2" dilations="1, 1" pads_begin="1, 1" pads_end="1, 1" auto_pad="explicit" />
			<input>
				<port id="0" precision="FP16">
					<dim>1</dim>
					<dim>64</dim>
					<dim>80</dim>
					<dim>80</dim>
				</port>
				<port id="1" precision="FP16">
					<dim>64</dim>
					<dim>64</dim>
					<dim>3</dim>
					<dim>3</dim>
				</port>
			</input>
			<output>
				<port id="2" precision="FP16">
					<dim>1</dim>
					<dim>64</dim>
					<dim>40</dim>
					<dim>40</dim>
				</port>
			</output>
		</layer>
		<layer id="101" name="Reshape_123" type="Const" version="opset1">
			<data element_type="f16" shape="1, 64, 1, 1" offset="57556" size="128" />
			<output>
				<port id="0" precision="FP16">
					<dim>1</dim>
					<dim>64</dim>
					<dim>1</dim>
					<dim>1</dim>
				</port>
			</output>
		</layer>
		<layer id="102" name="/model.3/conv/Conv" type="Add" version="opset1">
			<data auto_broadcast="numpy" />
			<input>
				<port id="0" precision="FP16">
					<dim>1</dim>
					<dim>64</dim>
					<dim>40</dim>
					<dim>40</dim>
				</port>
				<port id="1" precision="FP16">
					<dim>1</dim>
					<dim>64</dim>
					<dim>1</dim>
					<dim>1</dim>
				</port>
			</input>
			<output>
				<port id="2" precision="FP16" names="/model.3/conv/Conv_output_0">
					<dim>1</dim>
					<dim>64</dim>
					<dim>40</dim>
					<dim>40</dim>
				</port>
			</output>
		</layer>
		<layer id="103" name="/model.3/act/Mul" type="Swish" version="opset4">
			<input>
				<port id="0" precision="FP16">
					<dim>1</dim>
					<dim>64</dim>
					<dim>40</dim>
					<dim>40</dim>
				</port>
			</input>
			<output>
				<port id="1" precision="FP16" names="/model.3/act/Mul_output_0">
					<dim>1</dim>
					<dim>64</dim>
					<dim>40</dim>
					<dim>40</dim>
				</port>
			</output>
		</layer>
		<layer id="104" name="/model.3/act/Mul/fq_output_0/input_low" type="Const" version="opset1">
			<data element_type="f16" shape="" offset="20560" size="2" />
			<output>
				<port id="0" precision="FP16" />
			</output>
		</layer>
		<layer id="105" name="/model.3/act/Mul/fq_output_0/input_high" type="Const" version="opset1">
			<data element_type="f16" shape="" offset="20562" size="2" />
			<output>
				<port id="0" precision="FP16" />
			</output>
		</layer>
		<layer id="106" name="/model.3/act/Mul/fq_output_0/output_low" type="Const" version="opset1">
			<data element_type="f16" shape="" offset="20560" size="2" />
			<output>
				<port id="0" precision="FP16" />
			</output>
		</layer>
		<layer id="107" name="/model.3/act/Mul/fq_output_0/output_high" type="Const" version="opset1">
			<data element_type="f16" shape="" offset="20562" size="2" />
			<output>
				<port id="0" precision="FP16" />
			</output>
		</layer>
		<layer id="108" name="/model.3/act/Mul/fq_output_0" type="FakeQuantize" version="opset1">
			<data levels="256" auto_broadcast="numpy" />
			<input>
				<port id="0" precision="FP16">
					<dim>1</dim>
					<dim>64</dim>
					<dim>40</dim>
					<dim>40</dim>
				</port>
				<port id="1" precision="FP16" />
				<port id="2" precision="FP16" />
				<port id="3" precision="FP16" />
				<port id="4" precision="FP16" />
			</input>
			<output>
				<port id="5" precision="FP16">
					<dim>1</dim>
					<dim>64</dim>
					<dim>40</dim>
					<dim>40</dim>
				</port>
			</output>
		</layer>
		<layer id="109" name="Constant_578984" type="Const" version="opset1">
			<data element_type="i8" shape="64, 64, 1, 1" offset="57684" size="4096" />
			<output>
				<port id="0" precision="I8">
					<dim>64</dim>
					<dim>64</dim>
					<dim>1</dim>
					<dim>1</dim>
				</port>
			</output>
		</layer>
		<layer id="110" name="Convert_578985" type="Convert" version="opset1">
			<data destination_type="f16" />
			<input>
				<port id="0" precision="I8">
					<dim>64</dim>
					<dim>64</dim>
					<dim>1</dim>
					<dim>1</dim>
				</port>
			</input>
			<output>
				<port id="1" precision="FP16">
					<dim>64</dim>
					<dim>64</dim>
					<dim>1</dim>
					<dim>1</dim>
				</port>
			</output>
		</layer>
		<layer id="111" name="Constant_578986" type="Const" version="opset1">
			<data element_type="f16" shape="64, 1, 1, 1" offset="61780" size="128" />
			<output>
				<port id="0" precision="FP16">
					<dim>64</dim>
					<dim>1</dim>
					<dim>1</dim>
					<dim>1</dim>
				</port>
			</output>
		</layer>
		<layer id="112" name="/model.4/cv1/conv/Conv/WithoutBiases/fq_weights_1" type="Multiply" version="opset1">
			<data auto_broadcast="numpy" />
			<input>
				<port id="0" precision="FP16">
					<dim>64</dim>
					<dim>64</dim>
					<dim>1</dim>
					<dim>1</dim>
				</port>
				<port id="1" precision="FP16">
					<dim>64</dim>
					<dim>1</dim>
					<dim>1</dim>
					<dim>1</dim>
				</port>
			</input>
			<output>
				<port id="2" precision="FP16">
					<dim>64</dim>
					<dim>64</dim>
					<dim>1</dim>
					<dim>1</dim>
				</port>
			</output>
		</layer>
		<layer id="113" name="/model.4/cv1/conv/Conv/WithoutBiases" type="Convolution" version="opset1">
			<data strides="1, 1" dilations="1, 1" pads_begin="0, 0" pads_end="0, 0" auto_pad="explicit" />
			<input>
				<port id="0" precision="FP16">
					<dim>1</dim>
					<dim>64</dim>
					<dim>40</dim>
					<dim>40</dim>
				</port>
				<port id="1" precision="FP16">
					<dim>64</dim>
					<dim>64</dim>
					<dim>1</dim>
					<dim>1</dim>
				</port>
			</input>
			<output>
				<port id="2" precision="FP16">
					<dim>1</dim>
					<dim>64</dim>
					<dim>40</dim>
					<dim>40</dim>
				</port>
			</output>
		</layer>
		<layer id="114" name="Reshape_140" type="Const" version="opset1">
			<data element_type="f16" shape="1, 64, 1, 1" offset="61908" size="128" />
			<output>
				<port id="0" precision="FP16">
					<dim>1</dim>
					<dim>64</dim>
					<dim>1</dim>
					<dim>1</dim>
				</port>
			</output>
		</layer>
		<layer id="115" name="/model.4/cv1/conv/Conv" type="Add" version="opset1">
			<data auto_broadcast="numpy" />
			<input>
				<port id="0" precision="FP16">
					<dim>1</dim>
					<dim>64</dim>
					<dim>40</dim>
					<dim>40</dim>
				</port>
				<port id="1" precision="FP16">
					<dim>1</dim>
					<dim>64</dim>
					<dim>1</dim>
					<dim>1</dim>
				</port>
			</input>
			<output>
				<port id="2" precision="FP16" names="/model.4/cv1/conv/Conv_output_0">
					<dim>1</dim>
					<dim>64</dim>
					<dim>40</dim>
					<dim>40</dim>
				</port>
			</output>
		</layer>
		<layer id="116" name="/model.4/cv1/act/Mul" type="Swish" version="opset4">
			<input>
				<port id="0" precision="FP16">
					<dim>1</dim>
					<dim>64</dim>
					<dim>40</dim>
					<dim>40</dim>
				</port>
			</input>
			<output>
				<port id="1" precision="FP16" names="/model.4/cv1/act/Mul_output_0">
					<dim>1</dim>
					<dim>64</dim>
					<dim>40</dim>
					<dim>40</dim>
				</port>
			</output>
		</layer>
		<layer id="117" name="/model.4/cv1/act/Mul/fq_output_0/input_low" type="Const" version="opset1">
			<data element_type="f16" shape="" offset="62036" size="2" />
			<output>
				<port id="0" precision="FP16" />
			</output>
		</layer>
		<layer id="118" name="/model.4/cv1/act/Mul/fq_output_0/input_high" type="Const" version="opset1">
			<data element_type="f16" shape="" offset="62038" size="2" />
			<output>
				<port id="0" precision="FP16" />
			</output>
		</layer>
		<layer id="119" name="/model.4/cv1/act/Mul/fq_output_0/output_low" type="Const" version="opset1">
			<data element_type="f16" shape="" offset="62036" size="2" />
			<output>
				<port id="0" precision="FP16" />
			</output>
		</layer>
		<layer id="120" name="/model.4/cv1/act/Mul/fq_output_0/output_high" type="Const" version="opset1">
			<data element_type="f16" shape="" offset="62038" size="2" />
			<output>
				<port id="0" precision="FP16" />
			</output>
		</layer>
		<layer id="121" name="/model.4/cv1/act/Mul/fq_output_0" type="FakeQuantize" version="opset1">
			<data levels="256" auto_broadcast="numpy" />
			<input>
				<port id="0" precision="FP16">
					<dim>1</dim>
					<dim>64</dim>
					<dim>40</dim>
					<dim>40</dim>
				</port>
				<port id="1" precision="FP16" />
				<port id="2" precision="FP16" />
				<port id="3" precision="FP16" />
				<port id="4" precision="FP16" />
			</input>
			<output>
				<port id="5" precision="FP16">
					<dim>1</dim>
					<dim>64</dim>
					<dim>40</dim>
					<dim>40</dim>
				</port>
			</output>
		</layer>
		<layer id="122" name="Constant_145" type="Const" version="opset1">
			<data element_type="i64" shape="" offset="14800" size="8" />
			<output>
				<port id="0" precision="I64" />
			</output>
		</layer>
		<layer id="123" name="onnx::Split_235" type="Const" version="opset1">
			<data element_type="i64" shape="2" offset="62040" size="16" />
			<output>
				<port id="0" precision="I64" names="onnx::Split_235">
					<dim>2</dim>
				</port>
			</output>
		</layer>
		<layer id="124" name="/model.4/Split" type="VariadicSplit" version="opset1">
			<input>
				<port id="0" precision="FP16">
					<dim>1</dim>
					<dim>64</dim>
					<dim>40</dim>
					<dim>40</dim>
				</port>
				<port id="1" precision="I64" />
				<port id="2" precision="I64">
					<dim>2</dim>
				</port>
			</input>
			<output>
				<port id="3" precision="FP16" names="/model.4/Split_output_0">
					<dim>1</dim>
					<dim>32</dim>
					<dim>40</dim>
					<dim>40</dim>
				</port>
				<port id="4" precision="FP16" names="/model.4/Split_output_1">
					<dim>1</dim>
					<dim>32</dim>
					<dim>40</dim>
					<dim>40</dim>
				</port>
			</output>
		</layer>
		<layer id="125" name="Constant_578988" type="Const" version="opset1">
			<data element_type="i8" shape="16, 32, 3, 3" offset="62056" size="4608" />
			<output>
				<port id="0" precision="I8">
					<dim>16</dim>
					<dim>32</dim>
					<dim>3</dim>
					<dim>3</dim>
				</port>
			</output>
		</layer>
		<layer id="126" name="Convert_578989" type="Convert" version="opset1">
			<data destination_type="f16" />
			<input>
				<port id="0" precision="I8">
					<dim>16</dim>
					<dim>32</dim>
					<dim>3</dim>
					<dim>3</dim>
				</port>
			</input>
			<output>
				<port id="1" precision="FP16">
					<dim>16</dim>
					<dim>32</dim>
					<dim>3</dim>
					<dim>3</dim>
				</port>
			</output>
		</layer>
		<layer id="127" name="Constant_578990" type="Const" version="opset1">
			<data element_type="f16" shape="16, 1, 1, 1" offset="66664" size="32" />
			<output>
				<port id="0" precision="FP16">
					<dim>16</dim>
					<dim>1</dim>
					<dim>1</dim>
					<dim>1</dim>
				</port>
			</output>
		</layer>
		<layer id="128" name="/model.4/m.0/cv1/conv/Conv/WithoutBiases/fq_weights_1" type="Multiply" version="opset1">
			<data auto_broadcast="numpy" />
			<input>
				<port id="0" precision="FP16">
					<dim>16</dim>
					<dim>32</dim>
					<dim>3</dim>
					<dim>3</dim>
				</port>
				<port id="1" precision="FP16">
					<dim>16</dim>
					<dim>1</dim>
					<dim>1</dim>
					<dim>1</dim>
				</port>
			</input>
			<output>
				<port id="2" precision="FP16">
					<dim>16</dim>
					<dim>32</dim>
					<dim>3</dim>
					<dim>3</dim>
				</port>
			</output>
		</layer>
		<layer id="129" name="/model.4/m.0/cv1/conv/Conv/WithoutBiases" type="Convolution" version="opset1">
			<data strides="1, 1" dilations="1, 1" pads_begin="1, 1" pads_end="1, 1" auto_pad="explicit" />
			<input>
				<port id="0" precision="FP16">
					<dim>1</dim>
					<dim>32</dim>
					<dim>40</dim>
					<dim>40</dim>
				</port>
				<port id="1" precision="FP16">
					<dim>16</dim>
					<dim>32</dim>
					<dim>3</dim>
					<dim>3</dim>
				</port>
			</input>
			<output>
				<port id="2" precision="FP16">
					<dim>1</dim>
					<dim>16</dim>
					<dim>40</dim>
					<dim>40</dim>
				</port>
			</output>
		</layer>
		<layer id="130" name="Reshape_160" type="Const" version="opset1">
			<data element_type="f16" shape="1, 16, 1, 1" offset="66696" size="32" />
			<output>
				<port id="0" precision="FP16">
					<dim>1</dim>
					<dim>16</dim>
					<dim>1</dim>
					<dim>1</dim>
				</port>
			</output>
		</layer>
		<layer id="131" name="/model.4/m.0/cv1/conv/Conv" type="Add" version="opset1">
			<data auto_broadcast="numpy" />
			<input>
				<port id="0" precision="FP16">
					<dim>1</dim>
					<dim>16</dim>
					<dim>40</dim>
					<dim>40</dim>
				</port>
				<port id="1" precision="FP16">
					<dim>1</dim>
					<dim>16</dim>
					<dim>1</dim>
					<dim>1</dim>
				</port>
			</input>
			<output>
				<port id="2" precision="FP16" names="/model.4/m.0/cv1/conv/Conv_output_0">
					<dim>1</dim>
					<dim>16</dim>
					<dim>40</dim>
					<dim>40</dim>
				</port>
			</output>
		</layer>
		<layer id="132" name="/model.4/m.0/cv1/act/Mul" type="Swish" version="opset4">
			<input>
				<port id="0" precision="FP16">
					<dim>1</dim>
					<dim>16</dim>
					<dim>40</dim>
					<dim>40</dim>
				</port>
			</input>
			<output>
				<port id="1" precision="FP16" names="/model.4/m.0/cv1/act/Mul_output_0">
					<dim>1</dim>
					<dim>16</dim>
					<dim>40</dim>
					<dim>40</dim>
				</port>
			</output>
		</layer>
		<layer id="133" name="/model.4/m.0/cv1/act/Mul/fq_output_0/input_low" type="Const" version="opset1">
			<data element_type="f16" shape="" offset="20560" size="2" />
			<output>
				<port id="0" precision="FP16" />
			</output>
		</layer>
		<layer id="134" name="/model.4/m.0/cv1/act/Mul/fq_output_0/input_high" type="Const" version="opset1">
			<data element_type="f16" shape="" offset="66728" size="2" />
			<output>
				<port id="0" precision="FP16" />
			</output>
		</layer>
		<layer id="135" name="/model.4/m.0/cv1/act/Mul/fq_output_0/output_low" type="Const" version="opset1">
			<data element_type="f16" shape="" offset="20560" size="2" />
			<output>
				<port id="0" precision="FP16" />
			</output>
		</layer>
		<layer id="136" name="/model.4/m.0/cv1/act/Mul/fq_output_0/output_high" type="Const" version="opset1">
			<data element_type="f16" shape="" offset="66728" size="2" />
			<output>
				<port id="0" precision="FP16" />
			</output>
		</layer>
		<layer id="137" name="/model.4/m.0/cv1/act/Mul/fq_output_0" type="FakeQuantize" version="opset1">
			<data levels="256" auto_broadcast="numpy" />
			<input>
				<port id="0" precision="FP16">
					<dim>1</dim>
					<dim>16</dim>
					<dim>40</dim>
					<dim>40</dim>
				</port>
				<port id="1" precision="FP16" />
				<port id="2" precision="FP16" />
				<port id="3" precision="FP16" />
				<port id="4" precision="FP16" />
			</input>
			<output>
				<port id="5" precision="FP16">
					<dim>1</dim>
					<dim>16</dim>
					<dim>40</dim>
					<dim>40</dim>
				</port>
			</output>
		</layer>
		<layer id="138" name="Constant_578992" type="Const" version="opset1">
			<data element_type="i8" shape="32, 16, 3, 3" offset="66730" size="4608" />
			<output>
				<port id="0" precision="I8">
					<dim>32</dim>
					<dim>16</dim>
					<dim>3</dim>
					<dim>3</dim>
				</port>
			</output>
		</layer>
		<layer id="139" name="Convert_578993" type="Convert" version="opset1">
			<data destination_type="f16" />
			<input>
				<port id="0" precision="I8">
					<dim>32</dim>
					<dim>16</dim>
					<dim>3</dim>
					<dim>3</dim>
				</port>
			</input>
			<output>
				<port id="1" precision="FP16">
					<dim>32</dim>
					<dim>16</dim>
					<dim>3</dim>
					<dim>3</dim>
				</port>
			</output>
		</layer>
		<layer id="140" name="Constant_578994" type="Const" version="opset1">
			<data element_type="f16" shape="32, 1, 1, 1" offset="71338" size="64" />
			<output>
				<port id="0" precision="FP16">
					<dim>32</dim>
					<dim>1</dim>
					<dim>1</dim>
					<dim>1</dim>
				</port>
			</output>
		</layer>
		<layer id="141" name="/model.4/m.0/cv2/conv/Conv/WithoutBiases/fq_weights_1" type="Multiply" version="opset1">
			<data auto_broadcast="numpy" />
			<input>
				<port id="0" precision="FP16">
					<dim>32</dim>
					<dim>16</dim>
					<dim>3</dim>
					<dim>3</dim>
				</port>
				<port id="1" precision="FP16">
					<dim>32</dim>
					<dim>1</dim>
					<dim>1</dim>
					<dim>1</dim>
				</port>
			</input>
			<output>
				<port id="2" precision="FP16">
					<dim>32</dim>
					<dim>16</dim>
					<dim>3</dim>
					<dim>3</dim>
				</port>
			</output>
		</layer>
		<layer id="142" name="/model.4/m.0/cv2/conv/Conv/WithoutBiases" type="Convolution" version="opset1">
			<data strides="1, 1" dilations="1, 1" pads_begin="1, 1" pads_end="1, 1" auto_pad="explicit" />
			<input>
				<port id="0" precision="FP16">
					<dim>1</dim>
					<dim>16</dim>
					<dim>40</dim>
					<dim>40</dim>
				</port>
				<port id="1" precision="FP16">
					<dim>32</dim>
					<dim>16</dim>
					<dim>3</dim>
					<dim>3</dim>
				</port>
			</input>
			<output>
				<port id="2" precision="FP16">
					<dim>1</dim>
					<dim>32</dim>
					<dim>40</dim>
					<dim>40</dim>
				</port>
			</output>
		</layer>
		<layer id="143" name="Reshape_177" type="Const" version="opset1">
			<data element_type="f16" shape="1, 32, 1, 1" offset="71402" size="64" />
			<output>
				<port id="0" precision="FP16">
					<dim>1</dim>
					<dim>32</dim>
					<dim>1</dim>
					<dim>1</dim>
				</port>
			</output>
		</layer>
		<layer id="144" name="/model.4/m.0/cv2/conv/Conv" type="Add" version="opset1">
			<data auto_broadcast="numpy" />
			<input>
				<port id="0" precision="FP16">
					<dim>1</dim>
					<dim>32</dim>
					<dim>40</dim>
					<dim>40</dim>
				</port>
				<port id="1" precision="FP16">
					<dim>1</dim>
					<dim>32</dim>
					<dim>1</dim>
					<dim>1</dim>
				</port>
			</input>
			<output>
				<port id="2" precision="FP16" names="/model.4/m.0/cv2/conv/Conv_output_0">
					<dim>1</dim>
					<dim>32</dim>
					<dim>40</dim>
					<dim>40</dim>
				</port>
			</output>
		</layer>
		<layer id="145" name="/model.4/m.0/cv2/act/Mul" type="Swish" version="opset4">
			<input>
				<port id="0" precision="FP16">
					<dim>1</dim>
					<dim>32</dim>
					<dim>40</dim>
					<dim>40</dim>
				</port>
			</input>
			<output>
				<port id="1" precision="FP16" names="/model.4/m.0/cv2/act/Mul_output_0">
					<dim>1</dim>
					<dim>32</dim>
					<dim>40</dim>
					<dim>40</dim>
				</port>
			</output>
		</layer>
		<layer id="146" name="/model.4/m.0/cv2/act/Mul/fq_output_0/input_low" type="Const" version="opset1">
			<data element_type="f16" shape="" offset="71466" size="2" />
			<output>
				<port id="0" precision="FP16" />
			</output>
		</layer>
		<layer id="147" name="/model.4/m.0/cv2/act/Mul/fq_output_0/input_high" type="Const" version="opset1">
			<data element_type="f16" shape="" offset="71468" size="2" />
			<output>
				<port id="0" precision="FP16" />
			</output>
		</layer>
		<layer id="148" name="/model.4/m.0/cv2/act/Mul/fq_output_0/output_low" type="Const" version="opset1">
			<data element_type="f16" shape="" offset="71466" size="2" />
			<output>
				<port id="0" precision="FP16" />
			</output>
		</layer>
		<layer id="149" name="/model.4/m.0/cv2/act/Mul/fq_output_0/output_high" type="Const" version="opset1">
			<data element_type="f16" shape="" offset="71468" size="2" />
			<output>
				<port id="0" precision="FP16" />
			</output>
		</layer>
		<layer id="150" name="/model.4/m.0/cv2/act/Mul/fq_output_0" type="FakeQuantize" version="opset1">
			<data levels="256" auto_broadcast="numpy" />
			<input>
				<port id="0" precision="FP16">
					<dim>1</dim>
					<dim>32</dim>
					<dim>40</dim>
					<dim>40</dim>
				</port>
				<port id="1" precision="FP16" />
				<port id="2" precision="FP16" />
				<port id="3" precision="FP16" />
				<port id="4" precision="FP16" />
			</input>
			<output>
				<port id="5" precision="FP16">
					<dim>1</dim>
					<dim>32</dim>
					<dim>40</dim>
					<dim>40</dim>
				</port>
			</output>
		</layer>
		<layer id="151" name="/model.4/m.0/Add" type="Add" version="opset1">
			<data auto_broadcast="numpy" />
			<input>
				<port id="0" precision="FP16">
					<dim>1</dim>
					<dim>32</dim>
					<dim>40</dim>
					<dim>40</dim>
				</port>
				<port id="1" precision="FP16">
					<dim>1</dim>
					<dim>32</dim>
					<dim>40</dim>
					<dim>40</dim>
				</port>
			</input>
			<output>
				<port id="2" precision="FP16" names="/model.4/m.0/Add_output_0">
					<dim>1</dim>
					<dim>32</dim>
					<dim>40</dim>
					<dim>40</dim>
				</port>
			</output>
		</layer>
		<layer id="152" name="/model.4/m.0/Add/fq_output_0/input_low" type="Const" version="opset1">
			<data element_type="f16" shape="" offset="62036" size="2" />
			<output>
				<port id="0" precision="FP16" />
			</output>
		</layer>
		<layer id="153" name="/model.4/m.0/Add/fq_output_0/input_high" type="Const" version="opset1">
			<data element_type="f16" shape="" offset="62038" size="2" />
			<output>
				<port id="0" precision="FP16" />
			</output>
		</layer>
		<layer id="154" name="/model.4/m.0/Add/fq_output_0/output_low" type="Const" version="opset1">
			<data element_type="f16" shape="" offset="62036" size="2" />
			<output>
				<port id="0" precision="FP16" />
			</output>
		</layer>
		<layer id="155" name="/model.4/m.0/Add/fq_output_0/output_high" type="Const" version="opset1">
			<data element_type="f16" shape="" offset="62038" size="2" />
			<output>
				<port id="0" precision="FP16" />
			</output>
		</layer>
		<layer id="156" name="/model.4/m.0/Add/fq_output_0" type="FakeQuantize" version="opset1">
			<data levels="256" auto_broadcast="numpy" />
			<input>
				<port id="0" precision="FP16">
					<dim>1</dim>
					<dim>32</dim>
					<dim>40</dim>
					<dim>40</dim>
				</port>
				<port id="1" precision="FP16" />
				<port id="2" precision="FP16" />
				<port id="3" precision="FP16" />
				<port id="4" precision="FP16" />
			</input>
			<output>
				<port id="5" precision="FP16">
					<dim>1</dim>
					<dim>32</dim>
					<dim>40</dim>
					<dim>40</dim>
				</port>
			</output>
		</layer>
		<layer id="157" name="/model.4/Concat" type="Concat" version="opset1">
			<data axis="1" />
			<input>
				<port id="0" precision="FP16">
					<dim>1</dim>
					<dim>32</dim>
					<dim>40</dim>
					<dim>40</dim>
				</port>
				<port id="1" precision="FP16">
					<dim>1</dim>
					<dim>32</dim>
					<dim>40</dim>
					<dim>40</dim>
				</port>
				<port id="2" precision="FP16">
					<dim>1</dim>
					<dim>32</dim>
					<dim>40</dim>
					<dim>40</dim>
				</port>
			</input>
			<output>
				<port id="3" precision="FP16" names="/model.4/Concat_output_0">
					<dim>1</dim>
					<dim>96</dim>
					<dim>40</dim>
					<dim>40</dim>
				</port>
			</output>
		</layer>
		<layer id="158" name="Constant_578996" type="Const" version="opset1">
			<data element_type="i8" shape="128, 96, 1, 1" offset="71470" size="12288" />
			<output>
				<port id="0" precision="I8">
					<dim>128</dim>
					<dim>96</dim>
					<dim>1</dim>
					<dim>1</dim>
				</port>
			</output>
		</layer>
		<layer id="159" name="Convert_578997" type="Convert" version="opset1">
			<data destination_type="f16" />
			<input>
				<port id="0" precision="I8">
					<dim>128</dim>
					<dim>96</dim>
					<dim>1</dim>
					<dim>1</dim>
				</port>
			</input>
			<output>
				<port id="1" precision="FP16">
					<dim>128</dim>
					<dim>96</dim>
					<dim>1</dim>
					<dim>1</dim>
				</port>
			</output>
		</layer>
		<layer id="160" name="Constant_578998" type="Const" version="opset1">
			<data element_type="f16" shape="128, 1, 1, 1" offset="83758" size="256" />
			<output>
				<port id="0" precision="FP16">
					<dim>128</dim>
					<dim>1</dim>
					<dim>1</dim>
					<dim>1</dim>
				</port>
			</output>
		</layer>
		<layer id="161" name="/model.4/cv2/conv/Conv/WithoutBiases/fq_weights_1" type="Multiply" version="opset1">
			<data auto_broadcast="numpy" />
			<input>
				<port id="0" precision="FP16">
					<dim>128</dim>
					<dim>96</dim>
					<dim>1</dim>
					<dim>1</dim>
				</port>
				<port id="1" precision="FP16">
					<dim>128</dim>
					<dim>1</dim>
					<dim>1</dim>
					<dim>1</dim>
				</port>
			</input>
			<output>
				<port id="2" precision="FP16">
					<dim>128</dim>
					<dim>96</dim>
					<dim>1</dim>
					<dim>1</dim>
				</port>
			</output>
		</layer>
		<layer id="162" name="/model.4/cv2/conv/Conv/WithoutBiases" type="Convolution" version="opset1">
			<data strides="1, 1" dilations="1, 1" pads_begin="0, 0" pads_end="0, 0" auto_pad="explicit" />
			<input>
				<port id="0" precision="FP16">
					<dim>1</dim>
					<dim>96</dim>
					<dim>40</dim>
					<dim>40</dim>
				</port>
				<port id="1" precision="FP16">
					<dim>128</dim>
					<dim>96</dim>
					<dim>1</dim>
					<dim>1</dim>
				</port>
			</input>
			<output>
				<port id="2" precision="FP16">
					<dim>1</dim>
					<dim>128</dim>
					<dim>40</dim>
					<dim>40</dim>
				</port>
			</output>
		</layer>
		<layer id="163" name="Reshape_196" type="Const" version="opset1">
			<data element_type="f16" shape="1, 128, 1, 1" offset="84014" size="256" />
			<output>
				<port id="0" precision="FP16">
					<dim>1</dim>
					<dim>128</dim>
					<dim>1</dim>
					<dim>1</dim>
				</port>
			</output>
		</layer>
		<layer id="164" name="/model.4/cv2/conv/Conv" type="Add" version="opset1">
			<data auto_broadcast="numpy" />
			<input>
				<port id="0" precision="FP16">
					<dim>1</dim>
					<dim>128</dim>
					<dim>40</dim>
					<dim>40</dim>
				</port>
				<port id="1" precision="FP16">
					<dim>1</dim>
					<dim>128</dim>
					<dim>1</dim>
					<dim>1</dim>
				</port>
			</input>
			<output>
				<port id="2" precision="FP16" names="/model.4/cv2/conv/Conv_output_0">
					<dim>1</dim>
					<dim>128</dim>
					<dim>40</dim>
					<dim>40</dim>
				</port>
			</output>
		</layer>
		<layer id="165" name="/model.4/cv2/act/Mul" type="Swish" version="opset4">
			<input>
				<port id="0" precision="FP16">
					<dim>1</dim>
					<dim>128</dim>
					<dim>40</dim>
					<dim>40</dim>
				</port>
			</input>
			<output>
				<port id="1" precision="FP16" names="/model.4/cv2/act/Mul_output_0">
					<dim>1</dim>
					<dim>128</dim>
					<dim>40</dim>
					<dim>40</dim>
				</port>
			</output>
		</layer>
		<layer id="166" name="/model.4/cv2/act/Mul/fq_output_0/input_low" type="Const" version="opset1">
			<data element_type="f16" shape="" offset="20560" size="2" />
			<output>
				<port id="0" precision="FP16" />
			</output>
		</layer>
		<layer id="167" name="/model.4/cv2/act/Mul/fq_output_0/input_high" type="Const" version="opset1">
			<data element_type="f16" shape="" offset="20562" size="2" />
			<output>
				<port id="0" precision="FP16" />
			</output>
		</layer>
		<layer id="168" name="/model.4/cv2/act/Mul/fq_output_0/output_low" type="Const" version="opset1">
			<data element_type="f16" shape="" offset="20560" size="2" />
			<output>
				<port id="0" precision="FP16" />
			</output>
		</layer>
		<layer id="169" name="/model.4/cv2/act/Mul/fq_output_0/output_high" type="Const" version="opset1">
			<data element_type="f16" shape="" offset="20562" size="2" />
			<output>
				<port id="0" precision="FP16" />
			</output>
		</layer>
		<layer id="170" name="/model.4/cv2/act/Mul/fq_output_0" type="FakeQuantize" version="opset1">
			<data levels="256" auto_broadcast="numpy" />
			<input>
				<port id="0" precision="FP16">
					<dim>1</dim>
					<dim>128</dim>
					<dim>40</dim>
					<dim>40</dim>
				</port>
				<port id="1" precision="FP16" />
				<port id="2" precision="FP16" />
				<port id="3" precision="FP16" />
				<port id="4" precision="FP16" />
			</input>
			<output>
				<port id="5" precision="FP16">
					<dim>1</dim>
					<dim>128</dim>
					<dim>40</dim>
					<dim>40</dim>
				</port>
			</output>
		</layer>
		<layer id="171" name="Constant_579000" type="Const" version="opset1">
			<data element_type="i8" shape="128, 128, 3, 3" offset="84270" size="147456" />
			<output>
				<port id="0" precision="I8">
					<dim>128</dim>
					<dim>128</dim>
					<dim>3</dim>
					<dim>3</dim>
				</port>
			</output>
		</layer>
		<layer id="172" name="Convert_579001" type="Convert" version="opset1">
			<data destination_type="f16" />
			<input>
				<port id="0" precision="I8">
					<dim>128</dim>
					<dim>128</dim>
					<dim>3</dim>
					<dim>3</dim>
				</port>
			</input>
			<output>
				<port id="1" precision="FP16">
					<dim>128</dim>
					<dim>128</dim>
					<dim>3</dim>
					<dim>3</dim>
				</port>
			</output>
		</layer>
		<layer id="173" name="Constant_579002" type="Const" version="opset1">
			<data element_type="f16" shape="128, 1, 1, 1" offset="231726" size="256" />
			<output>
				<port id="0" precision="FP16">
					<dim>128</dim>
					<dim>1</dim>
					<dim>1</dim>
					<dim>1</dim>
				</port>
			</output>
		</layer>
		<layer id="174" name="/model.5/conv/Conv/WithoutBiases/fq_weights_1" type="Multiply" version="opset1">
			<data auto_broadcast="numpy" />
			<input>
				<port id="0" precision="FP16">
					<dim>128</dim>
					<dim>128</dim>
					<dim>3</dim>
					<dim>3</dim>
				</port>
				<port id="1" precision="FP16">
					<dim>128</dim>
					<dim>1</dim>
					<dim>1</dim>
					<dim>1</dim>
				</port>
			</input>
			<output>
				<port id="2" precision="FP16">
					<dim>128</dim>
					<dim>128</dim>
					<dim>3</dim>
					<dim>3</dim>
				</port>
			</output>
		</layer>
		<layer id="175" name="/model.5/conv/Conv/WithoutBiases" type="Convolution" version="opset1">
			<data strides="2, 2" dilations="1, 1" pads_begin="1, 1" pads_end="1, 1" auto_pad="explicit" />
			<input>
				<port id="0" precision="FP16">
					<dim>1</dim>
					<dim>128</dim>
					<dim>40</dim>
					<dim>40</dim>
				</port>
				<port id="1" precision="FP16">
					<dim>128</dim>
					<dim>128</dim>
					<dim>3</dim>
					<dim>3</dim>
				</port>
			</input>
			<output>
				<port id="2" precision="FP16">
					<dim>1</dim>
					<dim>128</dim>
					<dim>20</dim>
					<dim>20</dim>
				</port>
			</output>
		</layer>
		<layer id="176" name="Reshape_213" type="Const" version="opset1">
			<data element_type="f16" shape="1, 128, 1, 1" offset="231982" size="256" />
			<output>
				<port id="0" precision="FP16">
					<dim>1</dim>
					<dim>128</dim>
					<dim>1</dim>
					<dim>1</dim>
				</port>
			</output>
		</layer>
		<layer id="177" name="/model.5/conv/Conv" type="Add" version="opset1">
			<data auto_broadcast="numpy" />
			<input>
				<port id="0" precision="FP16">
					<dim>1</dim>
					<dim>128</dim>
					<dim>20</dim>
					<dim>20</dim>
				</port>
				<port id="1" precision="FP16">
					<dim>1</dim>
					<dim>128</dim>
					<dim>1</dim>
					<dim>1</dim>
				</port>
			</input>
			<output>
				<port id="2" precision="FP16" names="/model.5/conv/Conv_output_0">
					<dim>1</dim>
					<dim>128</dim>
					<dim>20</dim>
					<dim>20</dim>
				</port>
			</output>
		</layer>
		<layer id="178" name="/model.5/act/Mul" type="Swish" version="opset4">
			<input>
				<port id="0" precision="FP16">
					<dim>1</dim>
					<dim>128</dim>
					<dim>20</dim>
					<dim>20</dim>
				</port>
			</input>
			<output>
				<port id="1" precision="FP16" names="/model.5/act/Mul_output_0">
					<dim>1</dim>
					<dim>128</dim>
					<dim>20</dim>
					<dim>20</dim>
				</port>
			</output>
		</layer>
		<layer id="179" name="/model.5/act/Mul/fq_output_0/input_low" type="Const" version="opset1">
			<data element_type="f16" shape="" offset="232238" size="2" />
			<output>
				<port id="0" precision="FP16" />
			</output>
		</layer>
		<layer id="180" name="/model.5/act/Mul/fq_output_0/input_high" type="Const" version="opset1">
			<data element_type="f16" shape="" offset="232240" size="2" />
			<output>
				<port id="0" precision="FP16" />
			</output>
		</layer>
		<layer id="181" name="/model.5/act/Mul/fq_output_0/output_low" type="Const" version="opset1">
			<data element_type="f16" shape="" offset="232238" size="2" />
			<output>
				<port id="0" precision="FP16" />
			</output>
		</layer>
		<layer id="182" name="/model.5/act/Mul/fq_output_0/output_high" type="Const" version="opset1">
			<data element_type="f16" shape="" offset="232240" size="2" />
			<output>
				<port id="0" precision="FP16" />
			</output>
		</layer>
		<layer id="183" name="/model.5/act/Mul/fq_output_0" type="FakeQuantize" version="opset1">
			<data levels="256" auto_broadcast="numpy" />
			<input>
				<port id="0" precision="FP16">
					<dim>1</dim>
					<dim>128</dim>
					<dim>20</dim>
					<dim>20</dim>
				</port>
				<port id="1" precision="FP16" />
				<port id="2" precision="FP16" />
				<port id="3" precision="FP16" />
				<port id="4" precision="FP16" />
			</input>
			<output>
				<port id="5" precision="FP16">
					<dim>1</dim>
					<dim>128</dim>
					<dim>20</dim>
					<dim>20</dim>
				</port>
			</output>
		</layer>
		<layer id="184" name="Constant_579004" type="Const" version="opset1">
			<data element_type="i8" shape="128, 128, 1, 1" offset="232242" size="16384" />
			<output>
				<port id="0" precision="I8">
					<dim>128</dim>
					<dim>128</dim>
					<dim>1</dim>
					<dim>1</dim>
				</port>
			</output>
		</layer>
		<layer id="185" name="Convert_579005" type="Convert" version="opset1">
			<data destination_type="f16" />
			<input>
				<port id="0" precision="I8">
					<dim>128</dim>
					<dim>128</dim>
					<dim>1</dim>
					<dim>1</dim>
				</port>
			</input>
			<output>
				<port id="1" precision="FP16">
					<dim>128</dim>
					<dim>128</dim>
					<dim>1</dim>
					<dim>1</dim>
				</port>
			</output>
		</layer>
		<layer id="186" name="Constant_579006" type="Const" version="opset1">
			<data element_type="f16" shape="128, 1, 1, 1" offset="248626" size="256" />
			<output>
				<port id="0" precision="FP16">
					<dim>128</dim>
					<dim>1</dim>
					<dim>1</dim>
					<dim>1</dim>
				</port>
			</output>
		</layer>
		<layer id="187" name="/model.6/cv1/conv/Conv/WithoutBiases/fq_weights_1" type="Multiply" version="opset1">
			<data auto_broadcast="numpy" />
			<input>
				<port id="0" precision="FP16">
					<dim>128</dim>
					<dim>128</dim>
					<dim>1</dim>
					<dim>1</dim>
				</port>
				<port id="1" precision="FP16">
					<dim>128</dim>
					<dim>1</dim>
					<dim>1</dim>
					<dim>1</dim>
				</port>
			</input>
			<output>
				<port id="2" precision="FP16">
					<dim>128</dim>
					<dim>128</dim>
					<dim>1</dim>
					<dim>1</dim>
				</port>
			</output>
		</layer>
		<layer id="188" name="/model.6/cv1/conv/Conv/WithoutBiases" type="Convolution" version="opset1">
			<data strides="1, 1" dilations="1, 1" pads_begin="0, 0" pads_end="0, 0" auto_pad="explicit" />
			<input>
				<port id="0" precision="FP16">
					<dim>1</dim>
					<dim>128</dim>
					<dim>20</dim>
					<dim>20</dim>
				</port>
				<port id="1" precision="FP16">
					<dim>128</dim>
					<dim>128</dim>
					<dim>1</dim>
					<dim>1</dim>
				</port>
			</input>
			<output>
				<port id="2" precision="FP16">
					<dim>1</dim>
					<dim>128</dim>
					<dim>20</dim>
					<dim>20</dim>
				</port>
			</output>
		</layer>
		<layer id="189" name="Reshape_230" type="Const" version="opset1">
			<data element_type="f16" shape="1, 128, 1, 1" offset="248882" size="256" />
			<output>
				<port id="0" precision="FP16">
					<dim>1</dim>
					<dim>128</dim>
					<dim>1</dim>
					<dim>1</dim>
				</port>
			</output>
		</layer>
		<layer id="190" name="/model.6/cv1/conv/Conv" type="Add" version="opset1">
			<data auto_broadcast="numpy" />
			<input>
				<port id="0" precision="FP16">
					<dim>1</dim>
					<dim>128</dim>
					<dim>20</dim>
					<dim>20</dim>
				</port>
				<port id="1" precision="FP16">
					<dim>1</dim>
					<dim>128</dim>
					<dim>1</dim>
					<dim>1</dim>
				</port>
			</input>
			<output>
				<port id="2" precision="FP16" names="/model.6/cv1/conv/Conv_output_0">
					<dim>1</dim>
					<dim>128</dim>
					<dim>20</dim>
					<dim>20</dim>
				</port>
			</output>
		</layer>
		<layer id="191" name="/model.6/cv1/act/Mul" type="Swish" version="opset4">
			<input>
				<port id="0" precision="FP16">
					<dim>1</dim>
					<dim>128</dim>
					<dim>20</dim>
					<dim>20</dim>
				</port>
			</input>
			<output>
				<port id="1" precision="FP16" names="/model.6/cv1/act/Mul_output_0">
					<dim>1</dim>
					<dim>128</dim>
					<dim>20</dim>
					<dim>20</dim>
				</port>
			</output>
		</layer>
		<layer id="192" name="/model.6/cv1/act/Mul/fq_output_0/input_low" type="Const" version="opset1">
			<data element_type="f16" shape="" offset="20560" size="2" />
			<output>
				<port id="0" precision="FP16" />
			</output>
		</layer>
		<layer id="193" name="/model.6/cv1/act/Mul/fq_output_0/input_high" type="Const" version="opset1">
			<data element_type="f16" shape="" offset="249138" size="2" />
			<output>
				<port id="0" precision="FP16" />
			</output>
		</layer>
		<layer id="194" name="/model.6/cv1/act/Mul/fq_output_0/output_low" type="Const" version="opset1">
			<data element_type="f16" shape="" offset="20560" size="2" />
			<output>
				<port id="0" precision="FP16" />
			</output>
		</layer>
		<layer id="195" name="/model.6/cv1/act/Mul/fq_output_0/output_high" type="Const" version="opset1">
			<data element_type="f16" shape="" offset="249138" size="2" />
			<output>
				<port id="0" precision="FP16" />
			</output>
		</layer>
		<layer id="196" name="/model.6/cv1/act/Mul/fq_output_0" type="FakeQuantize" version="opset1">
			<data levels="256" auto_broadcast="numpy" />
			<input>
				<port id="0" precision="FP16">
					<dim>1</dim>
					<dim>128</dim>
					<dim>20</dim>
					<dim>20</dim>
				</port>
				<port id="1" precision="FP16" />
				<port id="2" precision="FP16" />
				<port id="3" precision="FP16" />
				<port id="4" precision="FP16" />
			</input>
			<output>
				<port id="5" precision="FP16">
					<dim>1</dim>
					<dim>128</dim>
					<dim>20</dim>
					<dim>20</dim>
				</port>
			</output>
		</layer>
		<layer id="197" name="Constant_235" type="Const" version="opset1">
			<data element_type="i64" shape="" offset="14800" size="8" />
			<output>
				<port id="0" precision="I64" />
			</output>
		</layer>
		<layer id="198" name="onnx::Split_255" type="Const" version="opset1">
			<data element_type="i64" shape="2" offset="249140" size="16" />
			<output>
				<port id="0" precision="I64" names="onnx::Split_255">
					<dim>2</dim>
				</port>
			</output>
		</layer>
		<layer id="199" name="/model.6/Split" type="VariadicSplit" version="opset1">
			<input>
				<port id="0" precision="FP16">
					<dim>1</dim>
					<dim>128</dim>
					<dim>20</dim>
					<dim>20</dim>
				</port>
				<port id="1" precision="I64" />
				<port id="2" precision="I64">
					<dim>2</dim>
				</port>
			</input>
			<output>
				<port id="3" precision="FP16" names="/model.6/Split_output_0">
					<dim>1</dim>
					<dim>64</dim>
					<dim>20</dim>
					<dim>20</dim>
				</port>
				<port id="4" precision="FP16" names="/model.6/Split_output_1">
					<dim>1</dim>
					<dim>64</dim>
					<dim>20</dim>
					<dim>20</dim>
				</port>
			</output>
		</layer>
		<layer id="200" name="Constant_579008" type="Const" version="opset1">
			<data element_type="i8" shape="32, 64, 1, 1" offset="249156" size="2048" />
			<output>
				<port id="0" precision="I8">
					<dim>32</dim>
					<dim>64</dim>
					<dim>1</dim>
					<dim>1</dim>
				</port>
			</output>
		</layer>
		<layer id="201" name="Convert_579009" type="Convert" version="opset1">
			<data destination_type="f16" />
			<input>
				<port id="0" precision="I8">
					<dim>32</dim>
					<dim>64</dim>
					<dim>1</dim>
					<dim>1</dim>
				</port>
			</input>
			<output>
				<port id="1" precision="FP16">
					<dim>32</dim>
					<dim>64</dim>
					<dim>1</dim>
					<dim>1</dim>
				</port>
			</output>
		</layer>
		<layer id="202" name="Constant_579010" type="Const" version="opset1">
			<data element_type="f16" shape="32, 1, 1, 1" offset="251204" size="64" />
			<output>
				<port id="0" precision="FP16">
					<dim>32</dim>
					<dim>1</dim>
					<dim>1</dim>
					<dim>1</dim>
				</port>
			</output>
		</layer>
		<layer id="203" name="/model.6/m.0/cv1/conv/Conv/WithoutBiases/fq_weights_1" type="Multiply" version="opset1">
			<data auto_broadcast="numpy" />
			<input>
				<port id="0" precision="FP16">
					<dim>32</dim>
					<dim>64</dim>
					<dim>1</dim>
					<dim>1</dim>
				</port>
				<port id="1" precision="FP16">
					<dim>32</dim>
					<dim>1</dim>
					<dim>1</dim>
					<dim>1</dim>
				</port>
			</input>
			<output>
				<port id="2" precision="FP16">
					<dim>32</dim>
					<dim>64</dim>
					<dim>1</dim>
					<dim>1</dim>
				</port>
			</output>
		</layer>
		<layer id="204" name="/model.6/m.0/cv1/conv/Conv/WithoutBiases" type="Convolution" version="opset1">
			<data strides="1, 1" dilations="1, 1" pads_begin="0, 0" pads_end="0, 0" auto_pad="explicit" />
			<input>
				<port id="0" precision="FP16">
					<dim>1</dim>
					<dim>64</dim>
					<dim>20</dim>
					<dim>20</dim>
				</port>
				<port id="1" precision="FP16">
					<dim>32</dim>
					<dim>64</dim>
					<dim>1</dim>
					<dim>1</dim>
				</port>
			</input>
			<output>
				<port id="2" precision="FP16">
					<dim>1</dim>
					<dim>32</dim>
					<dim>20</dim>
					<dim>20</dim>
				</port>
			</output>
		</layer>
		<layer id="205" name="Reshape_250" type="Const" version="opset1">
			<data element_type="f16" shape="1, 32, 1, 1" offset="251268" size="64" />
			<output>
				<port id="0" precision="FP16">
					<dim>1</dim>
					<dim>32</dim>
					<dim>1</dim>
					<dim>1</dim>
				</port>
			</output>
		</layer>
		<layer id="206" name="/model.6/m.0/cv1/conv/Conv" type="Add" version="opset1">
			<data auto_broadcast="numpy" />
			<input>
				<port id="0" precision="FP16">
					<dim>1</dim>
					<dim>32</dim>
					<dim>20</dim>
					<dim>20</dim>
				</port>
				<port id="1" precision="FP16">
					<dim>1</dim>
					<dim>32</dim>
					<dim>1</dim>
					<dim>1</dim>
				</port>
			</input>
			<output>
				<port id="2" precision="FP16" names="/model.6/m.0/cv1/conv/Conv_output_0">
					<dim>1</dim>
					<dim>32</dim>
					<dim>20</dim>
					<dim>20</dim>
				</port>
			</output>
		</layer>
		<layer id="207" name="/model.6/m.0/cv1/act/Mul" type="Swish" version="opset4">
			<input>
				<port id="0" precision="FP16">
					<dim>1</dim>
					<dim>32</dim>
					<dim>20</dim>
					<dim>20</dim>
				</port>
			</input>
			<output>
				<port id="1" precision="FP16" names="/model.6/m.0/cv1/act/Mul_output_0">
					<dim>1</dim>
					<dim>32</dim>
					<dim>20</dim>
					<dim>20</dim>
				</port>
			</output>
		</layer>
		<layer id="208" name="/model.6/m.0/cv1/act/Mul/fq_output_0/input_low" type="Const" version="opset1">
			<data element_type="f16" shape="" offset="251332" size="2" />
			<output>
				<port id="0" precision="FP16" />
			</output>
		</layer>
		<layer id="209" name="/model.6/m.0/cv1/act/Mul/fq_output_0/input_high" type="Const" version="opset1">
			<data element_type="f16" shape="" offset="251334" size="2" />
			<output>
				<port id="0" precision="FP16" />
			</output>
		</layer>
		<layer id="210" name="/model.6/m.0/cv1/act/Mul/fq_output_0/output_low" type="Const" version="opset1">
			<data element_type="f16" shape="" offset="251332" size="2" />
			<output>
				<port id="0" precision="FP16" />
			</output>
		</layer>
		<layer id="211" name="/model.6/m.0/cv1/act/Mul/fq_output_0/output_high" type="Const" version="opset1">
			<data element_type="f16" shape="" offset="251334" size="2" />
			<output>
				<port id="0" precision="FP16" />
			</output>
		</layer>
		<layer id="212" name="/model.6/m.0/cv1/act/Mul/fq_output_0" type="FakeQuantize" version="opset1">
			<data levels="256" auto_broadcast="numpy" />
			<input>
				<port id="0" precision="FP16">
					<dim>1</dim>
					<dim>32</dim>
					<dim>20</dim>
					<dim>20</dim>
				</port>
				<port id="1" precision="FP16" />
				<port id="2" precision="FP16" />
				<port id="3" precision="FP16" />
				<port id="4" precision="FP16" />
			</input>
			<output>
				<port id="5" precision="FP16">
					<dim>1</dim>
					<dim>32</dim>
					<dim>20</dim>
					<dim>20</dim>
				</port>
			</output>
		</layer>
		<layer id="213" name="Constant_579012" type="Const" version="opset1">
			<data element_type="i8" shape="32, 32, 3, 3" offset="251336" size="9216" />
			<output>
				<port id="0" precision="I8">
					<dim>32</dim>
					<dim>32</dim>
					<dim>3</dim>
					<dim>3</dim>
				</port>
			</output>
		</layer>
		<layer id="214" name="Convert_579013" type="Convert" version="opset1">
			<data destination_type="f16" />
			<input>
				<port id="0" precision="I8">
					<dim>32</dim>
					<dim>32</dim>
					<dim>3</dim>
					<dim>3</dim>
				</port>
			</input>
			<output>
				<port id="1" precision="FP16">
					<dim>32</dim>
					<dim>32</dim>
					<dim>3</dim>
					<dim>3</dim>
				</port>
			</output>
		</layer>
		<layer id="215" name="Constant_579014" type="Const" version="opset1">
			<data element_type="f16" shape="32, 1, 1, 1" offset="260552" size="64" />
			<output>
				<port id="0" precision="FP16">
					<dim>32</dim>
					<dim>1</dim>
					<dim>1</dim>
					<dim>1</dim>
				</port>
			</output>
		</layer>
		<layer id="216" name="/model.6/m.0/m/m.0/cv1/conv/Conv/WithoutBiases/fq_weights_1" type="Multiply" version="opset1">
			<data auto_broadcast="numpy" />
			<input>
				<port id="0" precision="FP16">
					<dim>32</dim>
					<dim>32</dim>
					<dim>3</dim>
					<dim>3</dim>
				</port>
				<port id="1" precision="FP16">
					<dim>32</dim>
					<dim>1</dim>
					<dim>1</dim>
					<dim>1</dim>
				</port>
			</input>
			<output>
				<port id="2" precision="FP16">
					<dim>32</dim>
					<dim>32</dim>
					<dim>3</dim>
					<dim>3</dim>
				</port>
			</output>
		</layer>
		<layer id="217" name="/model.6/m.0/m/m.0/cv1/conv/Conv/WithoutBiases" type="Convolution" version="opset1">
			<data strides="1, 1" dilations="1, 1" pads_begin="1, 1" pads_end="1, 1" auto_pad="explicit" />
			<input>
				<port id="0" precision="FP16">
					<dim>1</dim>
					<dim>32</dim>
					<dim>20</dim>
					<dim>20</dim>
				</port>
				<port id="1" precision="FP16">
					<dim>32</dim>
					<dim>32</dim>
					<dim>3</dim>
					<dim>3</dim>
				</port>
			</input>
			<output>
				<port id="2" precision="FP16">
					<dim>1</dim>
					<dim>32</dim>
					<dim>20</dim>
					<dim>20</dim>
				</port>
			</output>
		</layer>
		<layer id="218" name="Reshape_284" type="Const" version="opset1">
			<data element_type="f16" shape="1, 32, 1, 1" offset="260616" size="64" />
			<output>
				<port id="0" precision="FP16">
					<dim>1</dim>
					<dim>32</dim>
					<dim>1</dim>
					<dim>1</dim>
				</port>
			</output>
		</layer>
		<layer id="219" name="/model.6/m.0/m/m.0/cv1/conv/Conv" type="Add" version="opset1">
			<data auto_broadcast="numpy" />
			<input>
				<port id="0" precision="FP16">
					<dim>1</dim>
					<dim>32</dim>
					<dim>20</dim>
					<dim>20</dim>
				</port>
				<port id="1" precision="FP16">
					<dim>1</dim>
					<dim>32</dim>
					<dim>1</dim>
					<dim>1</dim>
				</port>
			</input>
			<output>
				<port id="2" precision="FP16" names="/model.6/m.0/m/m.0/cv1/conv/Conv_output_0">
					<dim>1</dim>
					<dim>32</dim>
					<dim>20</dim>
					<dim>20</dim>
				</port>
			</output>
		</layer>
		<layer id="220" name="/model.6/m.0/m/m.0/cv1/act/Mul" type="Swish" version="opset4">
			<input>
				<port id="0" precision="FP16">
					<dim>1</dim>
					<dim>32</dim>
					<dim>20</dim>
					<dim>20</dim>
				</port>
			</input>
			<output>
				<port id="1" precision="FP16" names="/model.6/m.0/m/m.0/cv1/act/Mul_output_0">
					<dim>1</dim>
					<dim>32</dim>
					<dim>20</dim>
					<dim>20</dim>
				</port>
			</output>
		</layer>
		<layer id="221" name="/model.6/m.0/m/m.0/cv1/act/Mul/fq_output_0/input_low" type="Const" version="opset1">
			<data element_type="f16" shape="" offset="20560" size="2" />
			<output>
				<port id="0" precision="FP16" />
			</output>
		</layer>
		<layer id="222" name="/model.6/m.0/m/m.0/cv1/act/Mul/fq_output_0/input_high" type="Const" version="opset1">
			<data element_type="f16" shape="" offset="260680" size="2" />
			<output>
				<port id="0" precision="FP16" />
			</output>
		</layer>
		<layer id="223" name="/model.6/m.0/m/m.0/cv1/act/Mul/fq_output_0/output_low" type="Const" version="opset1">
			<data element_type="f16" shape="" offset="20560" size="2" />
			<output>
				<port id="0" precision="FP16" />
			</output>
		</layer>
		<layer id="224" name="/model.6/m.0/m/m.0/cv1/act/Mul/fq_output_0/output_high" type="Const" version="opset1">
			<data element_type="f16" shape="" offset="260680" size="2" />
			<output>
				<port id="0" precision="FP16" />
			</output>
		</layer>
		<layer id="225" name="/model.6/m.0/m/m.0/cv1/act/Mul/fq_output_0" type="FakeQuantize" version="opset1">
			<data levels="256" auto_broadcast="numpy" />
			<input>
				<port id="0" precision="FP16">
					<dim>1</dim>
					<dim>32</dim>
					<dim>20</dim>
					<dim>20</dim>
				</port>
				<port id="1" precision="FP16" />
				<port id="2" precision="FP16" />
				<port id="3" precision="FP16" />
				<port id="4" precision="FP16" />
			</input>
			<output>
				<port id="5" precision="FP16">
					<dim>1</dim>
					<dim>32</dim>
					<dim>20</dim>
					<dim>20</dim>
				</port>
			</output>
		</layer>
		<layer id="226" name="Constant_579016" type="Const" version="opset1">
			<data element_type="i8" shape="32, 32, 3, 3" offset="260682" size="9216" />
			<output>
				<port id="0" precision="I8">
					<dim>32</dim>
					<dim>32</dim>
					<dim>3</dim>
					<dim>3</dim>
				</port>
			</output>
		</layer>
		<layer id="227" name="Convert_579017" type="Convert" version="opset1">
			<data destination_type="f16" />
			<input>
				<port id="0" precision="I8">
					<dim>32</dim>
					<dim>32</dim>
					<dim>3</dim>
					<dim>3</dim>
				</port>
			</input>
			<output>
				<port id="1" precision="FP16">
					<dim>32</dim>
					<dim>32</dim>
					<dim>3</dim>
					<dim>3</dim>
				</port>
			</output>
		</layer>
		<layer id="228" name="Constant_579018" type="Const" version="opset1">
			<data element_type="f16" shape="32, 1, 1, 1" offset="269898" size="64" />
			<output>
				<port id="0" precision="FP16">
					<dim>32</dim>
					<dim>1</dim>
					<dim>1</dim>
					<dim>1</dim>
				</port>
			</output>
		</layer>
		<layer id="229" name="/model.6/m.0/m/m.0/cv2/conv/Conv/WithoutBiases/fq_weights_1" type="Multiply" version="opset1">
			<data auto_broadcast="numpy" />
			<input>
				<port id="0" precision="FP16">
					<dim>32</dim>
					<dim>32</dim>
					<dim>3</dim>
					<dim>3</dim>
				</port>
				<port id="1" precision="FP16">
					<dim>32</dim>
					<dim>1</dim>
					<dim>1</dim>
					<dim>1</dim>
				</port>
			</input>
			<output>
				<port id="2" precision="FP16">
					<dim>32</dim>
					<dim>32</dim>
					<dim>3</dim>
					<dim>3</dim>
				</port>
			</output>
		</layer>
		<layer id="230" name="/model.6/m.0/m/m.0/cv2/conv/Conv/WithoutBiases" type="Convolution" version="opset1">
			<data strides="1, 1" dilations="1, 1" pads_begin="1, 1" pads_end="1, 1" auto_pad="explicit" />
			<input>
				<port id="0" precision="FP16">
					<dim>1</dim>
					<dim>32</dim>
					<dim>20</dim>
					<dim>20</dim>
				</port>
				<port id="1" precision="FP16">
					<dim>32</dim>
					<dim>32</dim>
					<dim>3</dim>
					<dim>3</dim>
				</port>
			</input>
			<output>
				<port id="2" precision="FP16">
					<dim>1</dim>
					<dim>32</dim>
					<dim>20</dim>
					<dim>20</dim>
				</port>
			</output>
		</layer>
		<layer id="231" name="Reshape_301" type="Const" version="opset1">
			<data element_type="f16" shape="1, 32, 1, 1" offset="269962" size="64" />
			<output>
				<port id="0" precision="FP16">
					<dim>1</dim>
					<dim>32</dim>
					<dim>1</dim>
					<dim>1</dim>
				</port>
			</output>
		</layer>
		<layer id="232" name="/model.6/m.0/m/m.0/cv2/conv/Conv" type="Add" version="opset1">
			<data auto_broadcast="numpy" />
			<input>
				<port id="0" precision="FP16">
					<dim>1</dim>
					<dim>32</dim>
					<dim>20</dim>
					<dim>20</dim>
				</port>
				<port id="1" precision="FP16">
					<dim>1</dim>
					<dim>32</dim>
					<dim>1</dim>
					<dim>1</dim>
				</port>
			</input>
			<output>
				<port id="2" precision="FP16" names="/model.6/m.0/m/m.0/cv2/conv/Conv_output_0">
					<dim>1</dim>
					<dim>32</dim>
					<dim>20</dim>
					<dim>20</dim>
				</port>
			</output>
		</layer>
		<layer id="233" name="/model.6/m.0/m/m.0/cv2/act/Mul" type="Swish" version="opset4">
			<input>
				<port id="0" precision="FP16">
					<dim>1</dim>
					<dim>32</dim>
					<dim>20</dim>
					<dim>20</dim>
				</port>
			</input>
			<output>
				<port id="1" precision="FP16" names="/model.6/m.0/m/m.0/cv2/act/Mul_output_0">
					<dim>1</dim>
					<dim>32</dim>
					<dim>20</dim>
					<dim>20</dim>
				</port>
			</output>
		</layer>
		<layer id="234" name="/model.6/m.0/m/m.0/cv2/act/Mul/fq_output_0/input_low" type="Const" version="opset1">
			<data element_type="f16" shape="" offset="20560" size="2" />
			<output>
				<port id="0" precision="FP16" />
			</output>
		</layer>
		<layer id="235" name="/model.6/m.0/m/m.0/cv2/act/Mul/fq_output_0/input_high" type="Const" version="opset1">
			<data element_type="f16" shape="" offset="260680" size="2" />
			<output>
				<port id="0" precision="FP16" />
			</output>
		</layer>
		<layer id="236" name="/model.6/m.0/m/m.0/cv2/act/Mul/fq_output_0/output_low" type="Const" version="opset1">
			<data element_type="f16" shape="" offset="20560" size="2" />
			<output>
				<port id="0" precision="FP16" />
			</output>
		</layer>
		<layer id="237" name="/model.6/m.0/m/m.0/cv2/act/Mul/fq_output_0/output_high" type="Const" version="opset1">
			<data element_type="f16" shape="" offset="260680" size="2" />
			<output>
				<port id="0" precision="FP16" />
			</output>
		</layer>
		<layer id="238" name="/model.6/m.0/m/m.0/cv2/act/Mul/fq_output_0" type="FakeQuantize" version="opset1">
			<data levels="256" auto_broadcast="numpy" />
			<input>
				<port id="0" precision="FP16">
					<dim>1</dim>
					<dim>32</dim>
					<dim>20</dim>
					<dim>20</dim>
				</port>
				<port id="1" precision="FP16" />
				<port id="2" precision="FP16" />
				<port id="3" precision="FP16" />
				<port id="4" precision="FP16" />
			</input>
			<output>
				<port id="5" precision="FP16">
					<dim>1</dim>
					<dim>32</dim>
					<dim>20</dim>
					<dim>20</dim>
				</port>
			</output>
		</layer>
		<layer id="239" name="/model.6/m.0/m/m.0/Add" type="Add" version="opset1">
			<data auto_broadcast="numpy" />
			<input>
				<port id="0" precision="FP16">
					<dim>1</dim>
					<dim>32</dim>
					<dim>20</dim>
					<dim>20</dim>
				</port>
				<port id="1" precision="FP16">
					<dim>1</dim>
					<dim>32</dim>
					<dim>20</dim>
					<dim>20</dim>
				</port>
			</input>
			<output>
				<port id="2" precision="FP16" names="/model.6/m.0/m/m.0/Add_output_0">
					<dim>1</dim>
					<dim>32</dim>
					<dim>20</dim>
					<dim>20</dim>
				</port>
			</output>
		</layer>
		<layer id="240" name="/model.6/m.0/m/m.0/Add/fq_output_0/input_low" type="Const" version="opset1">
			<data element_type="f16" shape="" offset="270026" size="2" />
			<output>
				<port id="0" precision="FP16" />
			</output>
		</layer>
		<layer id="241" name="/model.6/m.0/m/m.0/Add/fq_output_0/input_high" type="Const" version="opset1">
			<data element_type="f16" shape="" offset="270028" size="2" />
			<output>
				<port id="0" precision="FP16" />
			</output>
		</layer>
		<layer id="242" name="/model.6/m.0/m/m.0/Add/fq_output_0/output_low" type="Const" version="opset1">
			<data element_type="f16" shape="" offset="270026" size="2" />
			<output>
				<port id="0" precision="FP16" />
			</output>
		</layer>
		<layer id="243" name="/model.6/m.0/m/m.0/Add/fq_output_0/output_high" type="Const" version="opset1">
			<data element_type="f16" shape="" offset="270028" size="2" />
			<output>
				<port id="0" precision="FP16" />
			</output>
		</layer>
		<layer id="244" name="/model.6/m.0/m/m.0/Add/fq_output_0" type="FakeQuantize" version="opset1">
			<data levels="256" auto_broadcast="numpy" />
			<input>
				<port id="0" precision="FP16">
					<dim>1</dim>
					<dim>32</dim>
					<dim>20</dim>
					<dim>20</dim>
				</port>
				<port id="1" precision="FP16" />
				<port id="2" precision="FP16" />
				<port id="3" precision="FP16" />
				<port id="4" precision="FP16" />
			</input>
			<output>
				<port id="5" precision="FP16">
					<dim>1</dim>
					<dim>32</dim>
					<dim>20</dim>
					<dim>20</dim>
				</port>
			</output>
		</layer>
		<layer id="245" name="Constant_579020" type="Const" version="opset1">
			<data element_type="i8" shape="32, 32, 3, 3" offset="270030" size="9216" />
			<output>
				<port id="0" precision="I8">
					<dim>32</dim>
					<dim>32</dim>
					<dim>3</dim>
					<dim>3</dim>
				</port>
			</output>
		</layer>
		<layer id="246" name="Convert_579021" type="Convert" version="opset1">
			<data destination_type="f16" />
			<input>
				<port id="0" precision="I8">
					<dim>32</dim>
					<dim>32</dim>
					<dim>3</dim>
					<dim>3</dim>
				</port>
			</input>
			<output>
				<port id="1" precision="FP16">
					<dim>32</dim>
					<dim>32</dim>
					<dim>3</dim>
					<dim>3</dim>
				</port>
			</output>
		</layer>
		<layer id="247" name="Constant_579022" type="Const" version="opset1">
			<data element_type="f16" shape="32, 1, 1, 1" offset="279246" size="64" />
			<output>
				<port id="0" precision="FP16">
					<dim>32</dim>
					<dim>1</dim>
					<dim>1</dim>
					<dim>1</dim>
				</port>
			</output>
		</layer>
		<layer id="248" name="/model.6/m.0/m/m.1/cv1/conv/Conv/WithoutBiases/fq_weights_1" type="Multiply" version="opset1">
			<data auto_broadcast="numpy" />
			<input>
				<port id="0" precision="FP16">
					<dim>32</dim>
					<dim>32</dim>
					<dim>3</dim>
					<dim>3</dim>
				</port>
				<port id="1" precision="FP16">
					<dim>32</dim>
					<dim>1</dim>
					<dim>1</dim>
					<dim>1</dim>
				</port>
			</input>
			<output>
				<port id="2" precision="FP16">
					<dim>32</dim>
					<dim>32</dim>
					<dim>3</dim>
					<dim>3</dim>
				</port>
			</output>
		</layer>
		<layer id="249" name="/model.6/m.0/m/m.1/cv1/conv/Conv/WithoutBiases" type="Convolution" version="opset1">
			<data strides="1, 1" dilations="1, 1" pads_begin="1, 1" pads_end="1, 1" auto_pad="explicit" />
			<input>
				<port id="0" precision="FP16">
					<dim>1</dim>
					<dim>32</dim>
					<dim>20</dim>
					<dim>20</dim>
				</port>
				<port id="1" precision="FP16">
					<dim>32</dim>
					<dim>32</dim>
					<dim>3</dim>
					<dim>3</dim>
				</port>
			</input>
			<output>
				<port id="2" precision="FP16">
					<dim>1</dim>
					<dim>32</dim>
					<dim>20</dim>
					<dim>20</dim>
				</port>
			</output>
		</layer>
		<layer id="250" name="Reshape_319" type="Const" version="opset1">
			<data element_type="f16" shape="1, 32, 1, 1" offset="279310" size="64" />
			<output>
				<port id="0" precision="FP16">
					<dim>1</dim>
					<dim>32</dim>
					<dim>1</dim>
					<dim>1</dim>
				</port>
			</output>
		</layer>
		<layer id="251" name="/model.6/m.0/m/m.1/cv1/conv/Conv" type="Add" version="opset1">
			<data auto_broadcast="numpy" />
			<input>
				<port id="0" precision="FP16">
					<dim>1</dim>
					<dim>32</dim>
					<dim>20</dim>
					<dim>20</dim>
				</port>
				<port id="1" precision="FP16">
					<dim>1</dim>
					<dim>32</dim>
					<dim>1</dim>
					<dim>1</dim>
				</port>
			</input>
			<output>
				<port id="2" precision="FP16" names="/model.6/m.0/m/m.1/cv1/conv/Conv_output_0">
					<dim>1</dim>
					<dim>32</dim>
					<dim>20</dim>
					<dim>20</dim>
				</port>
			</output>
		</layer>
		<layer id="252" name="/model.6/m.0/m/m.1/cv1/act/Mul" type="Swish" version="opset4">
			<input>
				<port id="0" precision="FP16">
					<dim>1</dim>
					<dim>32</dim>
					<dim>20</dim>
					<dim>20</dim>
				</port>
			</input>
			<output>
				<port id="1" precision="FP16" names="/model.6/m.0/m/m.1/cv1/act/Mul_output_0">
					<dim>1</dim>
					<dim>32</dim>
					<dim>20</dim>
					<dim>20</dim>
				</port>
			</output>
		</layer>
		<layer id="253" name="/model.6/m.0/m/m.1/cv1/act/Mul/fq_output_0/input_low" type="Const" version="opset1">
			<data element_type="f16" shape="" offset="20560" size="2" />
			<output>
				<port id="0" precision="FP16" />
			</output>
		</layer>
		<layer id="254" name="/model.6/m.0/m/m.1/cv1/act/Mul/fq_output_0/input_high" type="Const" version="opset1">
			<data element_type="f16" shape="" offset="279374" size="2" />
			<output>
				<port id="0" precision="FP16" />
			</output>
		</layer>
		<layer id="255" name="/model.6/m.0/m/m.1/cv1/act/Mul/fq_output_0/output_low" type="Const" version="opset1">
			<data element_type="f16" shape="" offset="20560" size="2" />
			<output>
				<port id="0" precision="FP16" />
			</output>
		</layer>
		<layer id="256" name="/model.6/m.0/m/m.1/cv1/act/Mul/fq_output_0/output_high" type="Const" version="opset1">
			<data element_type="f16" shape="" offset="279374" size="2" />
			<output>
				<port id="0" precision="FP16" />
			</output>
		</layer>
		<layer id="257" name="/model.6/m.0/m/m.1/cv1/act/Mul/fq_output_0" type="FakeQuantize" version="opset1">
			<data levels="256" auto_broadcast="numpy" />
			<input>
				<port id="0" precision="FP16">
					<dim>1</dim>
					<dim>32</dim>
					<dim>20</dim>
					<dim>20</dim>
				</port>
				<port id="1" precision="FP16" />
				<port id="2" precision="FP16" />
				<port id="3" precision="FP16" />
				<port id="4" precision="FP16" />
			</input>
			<output>
				<port id="5" precision="FP16">
					<dim>1</dim>
					<dim>32</dim>
					<dim>20</dim>
					<dim>20</dim>
				</port>
			</output>
		</layer>
		<layer id="258" name="Constant_579024" type="Const" version="opset1">
			<data element_type="i8" shape="32, 32, 3, 3" offset="279376" size="9216" />
			<output>
				<port id="0" precision="I8">
					<dim>32</dim>
					<dim>32</dim>
					<dim>3</dim>
					<dim>3</dim>
				</port>
			</output>
		</layer>
		<layer id="259" name="Convert_579025" type="Convert" version="opset1">
			<data destination_type="f16" />
			<input>
				<port id="0" precision="I8">
					<dim>32</dim>
					<dim>32</dim>
					<dim>3</dim>
					<dim>3</dim>
				</port>
			</input>
			<output>
				<port id="1" precision="FP16">
					<dim>32</dim>
					<dim>32</dim>
					<dim>3</dim>
					<dim>3</dim>
				</port>
			</output>
		</layer>
		<layer id="260" name="Constant_579026" type="Const" version="opset1">
			<data element_type="f16" shape="32, 1, 1, 1" offset="288592" size="64" />
			<output>
				<port id="0" precision="FP16">
					<dim>32</dim>
					<dim>1</dim>
					<dim>1</dim>
					<dim>1</dim>
				</port>
			</output>
		</layer>
		<layer id="261" name="/model.6/m.0/m/m.1/cv2/conv/Conv/WithoutBiases/fq_weights_1" type="Multiply" version="opset1">
			<data auto_broadcast="numpy" />
			<input>
				<port id="0" precision="FP16">
					<dim>32</dim>
					<dim>32</dim>
					<dim>3</dim>
					<dim>3</dim>
				</port>
				<port id="1" precision="FP16">
					<dim>32</dim>
					<dim>1</dim>
					<dim>1</dim>
					<dim>1</dim>
				</port>
			</input>
			<output>
				<port id="2" precision="FP16">
					<dim>32</dim>
					<dim>32</dim>
					<dim>3</dim>
					<dim>3</dim>
				</port>
			</output>
		</layer>
		<layer id="262" name="/model.6/m.0/m/m.1/cv2/conv/Conv/WithoutBiases" type="Convolution" version="opset1">
			<data strides="1, 1" dilations="1, 1" pads_begin="1, 1" pads_end="1, 1" auto_pad="explicit" />
			<input>
				<port id="0" precision="FP16">
					<dim>1</dim>
					<dim>32</dim>
					<dim>20</dim>
					<dim>20</dim>
				</port>
				<port id="1" precision="FP16">
					<dim>32</dim>
					<dim>32</dim>
					<dim>3</dim>
					<dim>3</dim>
				</port>
			</input>
			<output>
				<port id="2" precision="FP16">
					<dim>1</dim>
					<dim>32</dim>
					<dim>20</dim>
					<dim>20</dim>
				</port>
			</output>
		</layer>
		<layer id="263" name="Reshape_336" type="Const" version="opset1">
			<data element_type="f16" shape="1, 32, 1, 1" offset="288656" size="64" />
			<output>
				<port id="0" precision="FP16">
					<dim>1</dim>
					<dim>32</dim>
					<dim>1</dim>
					<dim>1</dim>
				</port>
			</output>
		</layer>
		<layer id="264" name="/model.6/m.0/m/m.1/cv2/conv/Conv" type="Add" version="opset1">
			<data auto_broadcast="numpy" />
			<input>
				<port id="0" precision="FP16">
					<dim>1</dim>
					<dim>32</dim>
					<dim>20</dim>
					<dim>20</dim>
				</port>
				<port id="1" precision="FP16">
					<dim>1</dim>
					<dim>32</dim>
					<dim>1</dim>
					<dim>1</dim>
				</port>
			</input>
			<output>
				<port id="2" precision="FP16" names="/model.6/m.0/m/m.1/cv2/conv/Conv_output_0">
					<dim>1</dim>
					<dim>32</dim>
					<dim>20</dim>
					<dim>20</dim>
				</port>
			</output>
		</layer>
		<layer id="265" name="/model.6/m.0/m/m.1/cv2/act/Mul" type="Swish" version="opset4">
			<input>
				<port id="0" precision="FP16">
					<dim>1</dim>
					<dim>32</dim>
					<dim>20</dim>
					<dim>20</dim>
				</port>
			</input>
			<output>
				<port id="1" precision="FP16" names="/model.6/m.0/m/m.1/cv2/act/Mul_output_0">
					<dim>1</dim>
					<dim>32</dim>
					<dim>20</dim>
					<dim>20</dim>
				</port>
			</output>
		</layer>
		<layer id="266" name="/model.6/m.0/m/m.1/cv2/act/Mul/fq_output_0/input_low" type="Const" version="opset1">
			<data element_type="f16" shape="" offset="288720" size="2" />
			<output>
				<port id="0" precision="FP16" />
			</output>
		</layer>
		<layer id="267" name="/model.6/m.0/m/m.1/cv2/act/Mul/fq_output_0/input_high" type="Const" version="opset1">
			<data element_type="f16" shape="" offset="288722" size="2" />
			<output>
				<port id="0" precision="FP16" />
			</output>
		</layer>
		<layer id="268" name="/model.6/m.0/m/m.1/cv2/act/Mul/fq_output_0/output_low" type="Const" version="opset1">
			<data element_type="f16" shape="" offset="288720" size="2" />
			<output>
				<port id="0" precision="FP16" />
			</output>
		</layer>
		<layer id="269" name="/model.6/m.0/m/m.1/cv2/act/Mul/fq_output_0/output_high" type="Const" version="opset1">
			<data element_type="f16" shape="" offset="288722" size="2" />
			<output>
				<port id="0" precision="FP16" />
			</output>
		</layer>
		<layer id="270" name="/model.6/m.0/m/m.1/cv2/act/Mul/fq_output_0" type="FakeQuantize" version="opset1">
			<data levels="256" auto_broadcast="numpy" />
			<input>
				<port id="0" precision="FP16">
					<dim>1</dim>
					<dim>32</dim>
					<dim>20</dim>
					<dim>20</dim>
				</port>
				<port id="1" precision="FP16" />
				<port id="2" precision="FP16" />
				<port id="3" precision="FP16" />
				<port id="4" precision="FP16" />
			</input>
			<output>
				<port id="5" precision="FP16">
					<dim>1</dim>
					<dim>32</dim>
					<dim>20</dim>
					<dim>20</dim>
				</port>
			</output>
		</layer>
		<layer id="271" name="/model.6/m.0/m/m.1/Add" type="Add" version="opset1">
			<data auto_broadcast="numpy" />
			<input>
				<port id="0" precision="FP16">
					<dim>1</dim>
					<dim>32</dim>
					<dim>20</dim>
					<dim>20</dim>
				</port>
				<port id="1" precision="FP16">
					<dim>1</dim>
					<dim>32</dim>
					<dim>20</dim>
					<dim>20</dim>
				</port>
			</input>
			<output>
				<port id="2" precision="FP16" names="/model.6/m.0/m/m.1/Add_output_0">
					<dim>1</dim>
					<dim>32</dim>
					<dim>20</dim>
					<dim>20</dim>
				</port>
			</output>
		</layer>
		<layer id="272" name="/model.6/m.0/m/m.1/Add/fq_output_0/input_low" type="Const" version="opset1">
			<data element_type="f16" shape="" offset="288724" size="2" />
			<output>
				<port id="0" precision="FP16" />
			</output>
		</layer>
		<layer id="273" name="/model.6/m.0/m/m.1/Add/fq_output_0/input_high" type="Const" version="opset1">
			<data element_type="f16" shape="" offset="288726" size="2" />
			<output>
				<port id="0" precision="FP16" />
			</output>
		</layer>
		<layer id="274" name="/model.6/m.0/m/m.1/Add/fq_output_0/output_low" type="Const" version="opset1">
			<data element_type="f16" shape="" offset="288724" size="2" />
			<output>
				<port id="0" precision="FP16" />
			</output>
		</layer>
		<layer id="275" name="/model.6/m.0/m/m.1/Add/fq_output_0/output_high" type="Const" version="opset1">
			<data element_type="f16" shape="" offset="288726" size="2" />
			<output>
				<port id="0" precision="FP16" />
			</output>
		</layer>
		<layer id="276" name="/model.6/m.0/m/m.1/Add/fq_output_0" type="FakeQuantize" version="opset1">
			<data levels="256" auto_broadcast="numpy" />
			<input>
				<port id="0" precision="FP16">
					<dim>1</dim>
					<dim>32</dim>
					<dim>20</dim>
					<dim>20</dim>
				</port>
				<port id="1" precision="FP16" />
				<port id="2" precision="FP16" />
				<port id="3" precision="FP16" />
				<port id="4" precision="FP16" />
			</input>
			<output>
				<port id="5" precision="FP16">
					<dim>1</dim>
					<dim>32</dim>
					<dim>20</dim>
					<dim>20</dim>
				</port>
			</output>
		</layer>
		<layer id="277" name="Constant_579028" type="Const" version="opset1">
			<data element_type="i8" shape="32, 64, 1, 1" offset="288728" size="2048" />
			<output>
				<port id="0" precision="I8">
					<dim>32</dim>
					<dim>64</dim>
					<dim>1</dim>
					<dim>1</dim>
				</port>
			</output>
		</layer>
		<layer id="278" name="Convert_579029" type="Convert" version="opset1">
			<data destination_type="f16" />
			<input>
				<port id="0" precision="I8">
					<dim>32</dim>
					<dim>64</dim>
					<dim>1</dim>
					<dim>1</dim>
				</port>
			</input>
			<output>
				<port id="1" precision="FP16">
					<dim>32</dim>
					<dim>64</dim>
					<dim>1</dim>
					<dim>1</dim>
				</port>
			</output>
		</layer>
		<layer id="279" name="Constant_579030" type="Const" version="opset1">
			<data element_type="f16" shape="32, 1, 1, 1" offset="290776" size="64" />
			<output>
				<port id="0" precision="FP16">
					<dim>32</dim>
					<dim>1</dim>
					<dim>1</dim>
					<dim>1</dim>
				</port>
			</output>
		</layer>
		<layer id="280" name="/model.6/m.0/cv2/conv/Conv/WithoutBiases/fq_weights_1" type="Multiply" version="opset1">
			<data auto_broadcast="numpy" />
			<input>
				<port id="0" precision="FP16">
					<dim>32</dim>
					<dim>64</dim>
					<dim>1</dim>
					<dim>1</dim>
				</port>
				<port id="1" precision="FP16">
					<dim>32</dim>
					<dim>1</dim>
					<dim>1</dim>
					<dim>1</dim>
				</port>
			</input>
			<output>
				<port id="2" precision="FP16">
					<dim>32</dim>
					<dim>64</dim>
					<dim>1</dim>
					<dim>1</dim>
				</port>
			</output>
		</layer>
		<layer id="281" name="/model.6/m.0/cv2/conv/Conv/WithoutBiases" type="Convolution" version="opset1">
			<data strides="1, 1" dilations="1, 1" pads_begin="0, 0" pads_end="0, 0" auto_pad="explicit" />
			<input>
				<port id="0" precision="FP16">
					<dim>1</dim>
					<dim>64</dim>
					<dim>20</dim>
					<dim>20</dim>
				</port>
				<port id="1" precision="FP16">
					<dim>32</dim>
					<dim>64</dim>
					<dim>1</dim>
					<dim>1</dim>
				</port>
			</input>
			<output>
				<port id="2" precision="FP16">
					<dim>1</dim>
					<dim>32</dim>
					<dim>20</dim>
					<dim>20</dim>
				</port>
			</output>
		</layer>
		<layer id="282" name="Reshape_265" type="Const" version="opset1">
			<data element_type="f16" shape="1, 32, 1, 1" offset="290840" size="64" />
			<output>
				<port id="0" precision="FP16">
					<dim>1</dim>
					<dim>32</dim>
					<dim>1</dim>
					<dim>1</dim>
				</port>
			</output>
		</layer>
		<layer id="283" name="/model.6/m.0/cv2/conv/Conv" type="Add" version="opset1">
			<data auto_broadcast="numpy" />
			<input>
				<port id="0" precision="FP16">
					<dim>1</dim>
					<dim>32</dim>
					<dim>20</dim>
					<dim>20</dim>
				</port>
				<port id="1" precision="FP16">
					<dim>1</dim>
					<dim>32</dim>
					<dim>1</dim>
					<dim>1</dim>
				</port>
			</input>
			<output>
				<port id="2" precision="FP16" names="/model.6/m.0/cv2/conv/Conv_output_0">
					<dim>1</dim>
					<dim>32</dim>
					<dim>20</dim>
					<dim>20</dim>
				</port>
			</output>
		</layer>
		<layer id="284" name="/model.6/m.0/cv2/act/Mul" type="Swish" version="opset4">
			<input>
				<port id="0" precision="FP16">
					<dim>1</dim>
					<dim>32</dim>
					<dim>20</dim>
					<dim>20</dim>
				</port>
			</input>
			<output>
				<port id="1" precision="FP16" names="/model.6/m.0/cv2/act/Mul_output_0">
					<dim>1</dim>
					<dim>32</dim>
					<dim>20</dim>
					<dim>20</dim>
				</port>
			</output>
		</layer>
		<layer id="285" name="/model.6/m.0/cv2/act/Mul/fq_output_0/input_low" type="Const" version="opset1">
			<data element_type="f16" shape="" offset="288724" size="2" />
			<output>
				<port id="0" precision="FP16" />
			</output>
		</layer>
		<layer id="286" name="/model.6/m.0/cv2/act/Mul/fq_output_0/input_high" type="Const" version="opset1">
			<data element_type="f16" shape="" offset="288726" size="2" />
			<output>
				<port id="0" precision="FP16" />
			</output>
		</layer>
		<layer id="287" name="/model.6/m.0/cv2/act/Mul/fq_output_0/output_low" type="Const" version="opset1">
			<data element_type="f16" shape="" offset="288724" size="2" />
			<output>
				<port id="0" precision="FP16" />
			</output>
		</layer>
		<layer id="288" name="/model.6/m.0/cv2/act/Mul/fq_output_0/output_high" type="Const" version="opset1">
			<data element_type="f16" shape="" offset="288726" size="2" />
			<output>
				<port id="0" precision="FP16" />
			</output>
		</layer>
		<layer id="289" name="/model.6/m.0/cv2/act/Mul/fq_output_0" type="FakeQuantize" version="opset1">
			<data levels="256" auto_broadcast="numpy" />
			<input>
				<port id="0" precision="FP16">
					<dim>1</dim>
					<dim>32</dim>
					<dim>20</dim>
					<dim>20</dim>
				</port>
				<port id="1" precision="FP16" />
				<port id="2" precision="FP16" />
				<port id="3" precision="FP16" />
				<port id="4" precision="FP16" />
			</input>
			<output>
				<port id="5" precision="FP16">
					<dim>1</dim>
					<dim>32</dim>
					<dim>20</dim>
					<dim>20</dim>
				</port>
			</output>
		</layer>
		<layer id="290" name="/model.6/m.0/Concat" type="Concat" version="opset1">
			<data axis="1" />
			<input>
				<port id="0" precision="FP16">
					<dim>1</dim>
					<dim>32</dim>
					<dim>20</dim>
					<dim>20</dim>
				</port>
				<port id="1" precision="FP16">
					<dim>1</dim>
					<dim>32</dim>
					<dim>20</dim>
					<dim>20</dim>
				</port>
			</input>
			<output>
				<port id="2" precision="FP16" names="/model.6/m.0/Concat_output_0">
					<dim>1</dim>
					<dim>64</dim>
					<dim>20</dim>
					<dim>20</dim>
				</port>
			</output>
		</layer>
		<layer id="291" name="Constant_579032" type="Const" version="opset1">
			<data element_type="i8" shape="64, 64, 1, 1" offset="290904" size="4096" />
			<output>
				<port id="0" precision="I8">
					<dim>64</dim>
					<dim>64</dim>
					<dim>1</dim>
					<dim>1</dim>
				</port>
			</output>
		</layer>
		<layer id="292" name="Convert_579033" type="Convert" version="opset1">
			<data destination_type="f16" />
			<input>
				<port id="0" precision="I8">
					<dim>64</dim>
					<dim>64</dim>
					<dim>1</dim>
					<dim>1</dim>
				</port>
			</input>
			<output>
				<port id="1" precision="FP16">
					<dim>64</dim>
					<dim>64</dim>
					<dim>1</dim>
					<dim>1</dim>
				</port>
			</output>
		</layer>
		<layer id="293" name="Constant_579034" type="Const" version="opset1">
			<data element_type="f16" shape="64, 1, 1, 1" offset="295000" size="128" />
			<output>
				<port id="0" precision="FP16">
					<dim>64</dim>
					<dim>1</dim>
					<dim>1</dim>
					<dim>1</dim>
				</port>
			</output>
		</layer>
		<layer id="294" name="/model.6/m.0/cv3/conv/Conv/WithoutBiases/fq_weights_1" type="Multiply" version="opset1">
			<data auto_broadcast="numpy" />
			<input>
				<port id="0" precision="FP16">
					<dim>64</dim>
					<dim>64</dim>
					<dim>1</dim>
					<dim>1</dim>
				</port>
				<port id="1" precision="FP16">
					<dim>64</dim>
					<dim>1</dim>
					<dim>1</dim>
					<dim>1</dim>
				</port>
			</input>
			<output>
				<port id="2" precision="FP16">
					<dim>64</dim>
					<dim>64</dim>
					<dim>1</dim>
					<dim>1</dim>
				</port>
			</output>
		</layer>
		<layer id="295" name="/model.6/m.0/cv3/conv/Conv/WithoutBiases" type="Convolution" version="opset1">
			<data strides="1, 1" dilations="1, 1" pads_begin="0, 0" pads_end="0, 0" auto_pad="explicit" />
			<input>
				<port id="0" precision="FP16">
					<dim>1</dim>
					<dim>64</dim>
					<dim>20</dim>
					<dim>20</dim>
				</port>
				<port id="1" precision="FP16">
					<dim>64</dim>
					<dim>64</dim>
					<dim>1</dim>
					<dim>1</dim>
				</port>
			</input>
			<output>
				<port id="2" precision="FP16">
					<dim>1</dim>
					<dim>64</dim>
					<dim>20</dim>
					<dim>20</dim>
				</port>
			</output>
		</layer>
		<layer id="296" name="Reshape_355" type="Const" version="opset1">
			<data element_type="f16" shape="1, 64, 1, 1" offset="295128" size="128" />
			<output>
				<port id="0" precision="FP16">
					<dim>1</dim>
					<dim>64</dim>
					<dim>1</dim>
					<dim>1</dim>
				</port>
			</output>
		</layer>
		<layer id="297" name="/model.6/m.0/cv3/conv/Conv" type="Add" version="opset1">
			<data auto_broadcast="numpy" />
			<input>
				<port id="0" precision="FP16">
					<dim>1</dim>
					<dim>64</dim>
					<dim>20</dim>
					<dim>20</dim>
				</port>
				<port id="1" precision="FP16">
					<dim>1</dim>
					<dim>64</dim>
					<dim>1</dim>
					<dim>1</dim>
				</port>
			</input>
			<output>
				<port id="2" precision="FP16" names="/model.6/m.0/cv3/conv/Conv_output_0">
					<dim>1</dim>
					<dim>64</dim>
					<dim>20</dim>
					<dim>20</dim>
				</port>
			</output>
		</layer>
		<layer id="298" name="/model.6/m.0/cv3/act/Mul" type="Swish" version="opset4">
			<input>
				<port id="0" precision="FP16">
					<dim>1</dim>
					<dim>64</dim>
					<dim>20</dim>
					<dim>20</dim>
				</port>
			</input>
			<output>
				<port id="1" precision="FP16" names="/model.6/m.0/cv3/act/Mul_output_0">
					<dim>1</dim>
					<dim>64</dim>
					<dim>20</dim>
					<dim>20</dim>
				</port>
			</output>
		</layer>
		<layer id="299" name="/model.6/m.0/cv3/act/Mul/fq_output_0/input_low" type="Const" version="opset1">
			<data element_type="f16" shape="" offset="20560" size="2" />
			<output>
				<port id="0" precision="FP16" />
			</output>
		</layer>
		<layer id="300" name="/model.6/m.0/cv3/act/Mul/fq_output_0/input_high" type="Const" version="opset1">
			<data element_type="f16" shape="" offset="249138" size="2" />
			<output>
				<port id="0" precision="FP16" />
			</output>
		</layer>
		<layer id="301" name="/model.6/m.0/cv3/act/Mul/fq_output_0/output_low" type="Const" version="opset1">
			<data element_type="f16" shape="" offset="20560" size="2" />
			<output>
				<port id="0" precision="FP16" />
			</output>
		</layer>
		<layer id="302" name="/model.6/m.0/cv3/act/Mul/fq_output_0/output_high" type="Const" version="opset1">
			<data element_type="f16" shape="" offset="249138" size="2" />
			<output>
				<port id="0" precision="FP16" />
			</output>
		</layer>
		<layer id="303" name="/model.6/m.0/cv3/act/Mul/fq_output_0" type="FakeQuantize" version="opset1">
			<data levels="256" auto_broadcast="numpy" />
			<input>
				<port id="0" precision="FP16">
					<dim>1</dim>
					<dim>64</dim>
					<dim>20</dim>
					<dim>20</dim>
				</port>
				<port id="1" precision="FP16" />
				<port id="2" precision="FP16" />
				<port id="3" precision="FP16" />
				<port id="4" precision="FP16" />
			</input>
			<output>
				<port id="5" precision="FP16">
					<dim>1</dim>
					<dim>64</dim>
					<dim>20</dim>
					<dim>20</dim>
				</port>
			</output>
		</layer>
		<layer id="304" name="/model.6/Concat" type="Concat" version="opset1">
			<data axis="1" />
			<input>
				<port id="0" precision="FP16">
					<dim>1</dim>
					<dim>64</dim>
					<dim>20</dim>
					<dim>20</dim>
				</port>
				<port id="1" precision="FP16">
					<dim>1</dim>
					<dim>64</dim>
					<dim>20</dim>
					<dim>20</dim>
				</port>
				<port id="2" precision="FP16">
					<dim>1</dim>
					<dim>64</dim>
					<dim>20</dim>
					<dim>20</dim>
				</port>
			</input>
			<output>
				<port id="3" precision="FP16" names="/model.6/Concat_output_0">
					<dim>1</dim>
					<dim>192</dim>
					<dim>20</dim>
					<dim>20</dim>
				</port>
			</output>
		</layer>
		<layer id="305" name="Constant_579036" type="Const" version="opset1">
			<data element_type="i8" shape="128, 192, 1, 1" offset="295256" size="24576" />
			<output>
				<port id="0" precision="I8">
					<dim>128</dim>
					<dim>192</dim>
					<dim>1</dim>
					<dim>1</dim>
				</port>
			</output>
		</layer>
		<layer id="306" name="Convert_579037" type="Convert" version="opset1">
			<data destination_type="f16" />
			<input>
				<port id="0" precision="I8">
					<dim>128</dim>
					<dim>192</dim>
					<dim>1</dim>
					<dim>1</dim>
				</port>
			</input>
			<output>
				<port id="1" precision="FP16">
					<dim>128</dim>
					<dim>192</dim>
					<dim>1</dim>
					<dim>1</dim>
				</port>
			</output>
		</layer>
		<layer id="307" name="Constant_579038" type="Const" version="opset1">
			<data element_type="f16" shape="128, 1, 1, 1" offset="319832" size="256" />
			<output>
				<port id="0" precision="FP16">
					<dim>128</dim>
					<dim>1</dim>
					<dim>1</dim>
					<dim>1</dim>
				</port>
			</output>
		</layer>
		<layer id="308" name="/model.6/cv2/conv/Conv/WithoutBiases/fq_weights_1" type="Multiply" version="opset1">
			<data auto_broadcast="numpy" />
			<input>
				<port id="0" precision="FP16">
					<dim>128</dim>
					<dim>192</dim>
					<dim>1</dim>
					<dim>1</dim>
				</port>
				<port id="1" precision="FP16">
					<dim>128</dim>
					<dim>1</dim>
					<dim>1</dim>
					<dim>1</dim>
				</port>
			</input>
			<output>
				<port id="2" precision="FP16">
					<dim>128</dim>
					<dim>192</dim>
					<dim>1</dim>
					<dim>1</dim>
				</port>
			</output>
		</layer>
		<layer id="309" name="/model.6/cv2/conv/Conv/WithoutBiases" type="Convolution" version="opset1">
			<data strides="1, 1" dilations="1, 1" pads_begin="0, 0" pads_end="0, 0" auto_pad="explicit" />
			<input>
				<port id="0" precision="FP16">
					<dim>1</dim>
					<dim>192</dim>
					<dim>20</dim>
					<dim>20</dim>
				</port>
				<port id="1" precision="FP16">
					<dim>128</dim>
					<dim>192</dim>
					<dim>1</dim>
					<dim>1</dim>
				</port>
			</input>
			<output>
				<port id="2" precision="FP16">
					<dim>1</dim>
					<dim>128</dim>
					<dim>20</dim>
					<dim>20</dim>
				</port>
			</output>
		</layer>
		<layer id="310" name="Reshape_373" type="Const" version="opset1">
			<data element_type="f16" shape="1, 128, 1, 1" offset="320088" size="256" />
			<output>
				<port id="0" precision="FP16">
					<dim>1</dim>
					<dim>128</dim>
					<dim>1</dim>
					<dim>1</dim>
				</port>
			</output>
		</layer>
		<layer id="311" name="/model.6/cv2/conv/Conv" type="Add" version="opset1">
			<data auto_broadcast="numpy" />
			<input>
				<port id="0" precision="FP16">
					<dim>1</dim>
					<dim>128</dim>
					<dim>20</dim>
					<dim>20</dim>
				</port>
				<port id="1" precision="FP16">
					<dim>1</dim>
					<dim>128</dim>
					<dim>1</dim>
					<dim>1</dim>
				</port>
			</input>
			<output>
				<port id="2" precision="FP16" names="/model.6/cv2/conv/Conv_output_0">
					<dim>1</dim>
					<dim>128</dim>
					<dim>20</dim>
					<dim>20</dim>
				</port>
			</output>
		</layer>
		<layer id="312" name="/model.6/cv2/act/Mul" type="Swish" version="opset4">
			<input>
				<port id="0" precision="FP16">
					<dim>1</dim>
					<dim>128</dim>
					<dim>20</dim>
					<dim>20</dim>
				</port>
			</input>
			<output>
				<port id="1" precision="FP16" names="/model.6/cv2/act/Mul_output_0">
					<dim>1</dim>
					<dim>128</dim>
					<dim>20</dim>
					<dim>20</dim>
				</port>
			</output>
		</layer>
		<layer id="313" name="/model.6/cv2/act/Mul/fq_output_0/input_low" type="Const" version="opset1">
			<data element_type="f16" shape="" offset="20560" size="2" />
			<output>
				<port id="0" precision="FP16" />
			</output>
		</layer>
		<layer id="314" name="/model.6/cv2/act/Mul/fq_output_0/input_high" type="Const" version="opset1">
			<data element_type="f16" shape="" offset="320344" size="2" />
			<output>
				<port id="0" precision="FP16" />
			</output>
		</layer>
		<layer id="315" name="/model.6/cv2/act/Mul/fq_output_0/output_low" type="Const" version="opset1">
			<data element_type="f16" shape="" offset="20560" size="2" />
			<output>
				<port id="0" precision="FP16" />
			</output>
		</layer>
		<layer id="316" name="/model.6/cv2/act/Mul/fq_output_0/output_high" type="Const" version="opset1">
			<data element_type="f16" shape="" offset="320344" size="2" />
			<output>
				<port id="0" precision="FP16" />
			</output>
		</layer>
		<layer id="317" name="/model.6/cv2/act/Mul/fq_output_0" type="FakeQuantize" version="opset1">
			<data levels="256" auto_broadcast="numpy" />
			<input>
				<port id="0" precision="FP16">
					<dim>1</dim>
					<dim>128</dim>
					<dim>20</dim>
					<dim>20</dim>
				</port>
				<port id="1" precision="FP16" />
				<port id="2" precision="FP16" />
				<port id="3" precision="FP16" />
				<port id="4" precision="FP16" />
			</input>
			<output>
				<port id="5" precision="FP16">
					<dim>1</dim>
					<dim>128</dim>
					<dim>20</dim>
					<dim>20</dim>
				</port>
			</output>
		</layer>
		<layer id="318" name="Constant_579040" type="Const" version="opset1">
			<data element_type="i8" shape="256, 128, 3, 3" offset="320346" size="294912" />
			<output>
				<port id="0" precision="I8">
					<dim>256</dim>
					<dim>128</dim>
					<dim>3</dim>
					<dim>3</dim>
				</port>
			</output>
		</layer>
		<layer id="319" name="Convert_579041" type="Convert" version="opset1">
			<data destination_type="f16" />
			<input>
				<port id="0" precision="I8">
					<dim>256</dim>
					<dim>128</dim>
					<dim>3</dim>
					<dim>3</dim>
				</port>
			</input>
			<output>
				<port id="1" precision="FP16">
					<dim>256</dim>
					<dim>128</dim>
					<dim>3</dim>
					<dim>3</dim>
				</port>
			</output>
		</layer>
		<layer id="320" name="Constant_579042" type="Const" version="opset1">
			<data element_type="f16" shape="256, 1, 1, 1" offset="615258" size="512" />
			<output>
				<port id="0" precision="FP16">
					<dim>256</dim>
					<dim>1</dim>
					<dim>1</dim>
					<dim>1</dim>
				</port>
			</output>
		</layer>
		<layer id="321" name="/model.7/conv/Conv/WithoutBiases/fq_weights_1" type="Multiply" version="opset1">
			<data auto_broadcast="numpy" />
			<input>
				<port id="0" precision="FP16">
					<dim>256</dim>
					<dim>128</dim>
					<dim>3</dim>
					<dim>3</dim>
				</port>
				<port id="1" precision="FP16">
					<dim>256</dim>
					<dim>1</dim>
					<dim>1</dim>
					<dim>1</dim>
				</port>
			</input>
			<output>
				<port id="2" precision="FP16">
					<dim>256</dim>
					<dim>128</dim>
					<dim>3</dim>
					<dim>3</dim>
				</port>
			</output>
		</layer>
		<layer id="322" name="/model.7/conv/Conv/WithoutBiases" type="Convolution" version="opset1">
			<data strides="2, 2" dilations="1, 1" pads_begin="1, 1" pads_end="1, 1" auto_pad="explicit" />
			<input>
				<port id="0" precision="FP16">
					<dim>1</dim>
					<dim>128</dim>
					<dim>20</dim>
					<dim>20</dim>
				</port>
				<port id="1" precision="FP16">
					<dim>256</dim>
					<dim>128</dim>
					<dim>3</dim>
					<dim>3</dim>
				</port>
			</input>
			<output>
				<port id="2" precision="FP16">
					<dim>1</dim>
					<dim>256</dim>
					<dim>10</dim>
					<dim>10</dim>
				</port>
			</output>
		</layer>
		<layer id="323" name="Reshape_390" type="Const" version="opset1">
			<data element_type="f16" shape="1, 256, 1, 1" offset="615770" size="512" />
			<output>
				<port id="0" precision="FP16">
					<dim>1</dim>
					<dim>256</dim>
					<dim>1</dim>
					<dim>1</dim>
				</port>
			</output>
		</layer>
		<layer id="324" name="/model.7/conv/Conv" type="Add" version="opset1">
			<data auto_broadcast="numpy" />
			<input>
				<port id="0" precision="FP16">
					<dim>1</dim>
					<dim>256</dim>
					<dim>10</dim>
					<dim>10</dim>
				</port>
				<port id="1" precision="FP16">
					<dim>1</dim>
					<dim>256</dim>
					<dim>1</dim>
					<dim>1</dim>
				</port>
			</input>
			<output>
				<port id="2" precision="FP16" names="/model.7/conv/Conv_output_0">
					<dim>1</dim>
					<dim>256</dim>
					<dim>10</dim>
					<dim>10</dim>
				</port>
			</output>
		</layer>
		<layer id="325" name="/model.7/act/Mul" type="Swish" version="opset4">
			<input>
				<port id="0" precision="FP16">
					<dim>1</dim>
					<dim>256</dim>
					<dim>10</dim>
					<dim>10</dim>
				</port>
			</input>
			<output>
				<port id="1" precision="FP16" names="/model.7/act/Mul_output_0">
					<dim>1</dim>
					<dim>256</dim>
					<dim>10</dim>
					<dim>10</dim>
				</port>
			</output>
		</layer>
		<layer id="326" name="/model.7/act/Mul/fq_output_0/input_low" type="Const" version="opset1">
			<data element_type="f16" shape="" offset="616282" size="2" />
			<output>
				<port id="0" precision="FP16" />
			</output>
		</layer>
		<layer id="327" name="/model.7/act/Mul/fq_output_0/input_high" type="Const" version="opset1">
			<data element_type="f16" shape="" offset="616284" size="2" />
			<output>
				<port id="0" precision="FP16" />
			</output>
		</layer>
		<layer id="328" name="/model.7/act/Mul/fq_output_0/output_low" type="Const" version="opset1">
			<data element_type="f16" shape="" offset="616282" size="2" />
			<output>
				<port id="0" precision="FP16" />
			</output>
		</layer>
		<layer id="329" name="/model.7/act/Mul/fq_output_0/output_high" type="Const" version="opset1">
			<data element_type="f16" shape="" offset="616284" size="2" />
			<output>
				<port id="0" precision="FP16" />
			</output>
		</layer>
		<layer id="330" name="/model.7/act/Mul/fq_output_0" type="FakeQuantize" version="opset1">
			<data levels="256" auto_broadcast="numpy" />
			<input>
				<port id="0" precision="FP16">
					<dim>1</dim>
					<dim>256</dim>
					<dim>10</dim>
					<dim>10</dim>
				</port>
				<port id="1" precision="FP16" />
				<port id="2" precision="FP16" />
				<port id="3" precision="FP16" />
				<port id="4" precision="FP16" />
			</input>
			<output>
				<port id="5" precision="FP16">
					<dim>1</dim>
					<dim>256</dim>
					<dim>10</dim>
					<dim>10</dim>
				</port>
			</output>
		</layer>
		<layer id="331" name="Constant_579044" type="Const" version="opset1">
			<data element_type="i8" shape="256, 256, 1, 1" offset="616286" size="65536" />
			<output>
				<port id="0" precision="I8">
					<dim>256</dim>
					<dim>256</dim>
					<dim>1</dim>
					<dim>1</dim>
				</port>
			</output>
		</layer>
		<layer id="332" name="Convert_579045" type="Convert" version="opset1">
			<data destination_type="f16" />
			<input>
				<port id="0" precision="I8">
					<dim>256</dim>
					<dim>256</dim>
					<dim>1</dim>
					<dim>1</dim>
				</port>
			</input>
			<output>
				<port id="1" precision="FP16">
					<dim>256</dim>
					<dim>256</dim>
					<dim>1</dim>
					<dim>1</dim>
				</port>
			</output>
		</layer>
		<layer id="333" name="Constant_579046" type="Const" version="opset1">
			<data element_type="f16" shape="256, 1, 1, 1" offset="681822" size="512" />
			<output>
				<port id="0" precision="FP16">
					<dim>256</dim>
					<dim>1</dim>
					<dim>1</dim>
					<dim>1</dim>
				</port>
			</output>
		</layer>
		<layer id="334" name="/model.8/cv1/conv/Conv/WithoutBiases/fq_weights_1" type="Multiply" version="opset1">
			<data auto_broadcast="numpy" />
			<input>
				<port id="0" precision="FP16">
					<dim>256</dim>
					<dim>256</dim>
					<dim>1</dim>
					<dim>1</dim>
				</port>
				<port id="1" precision="FP16">
					<dim>256</dim>
					<dim>1</dim>
					<dim>1</dim>
					<dim>1</dim>
				</port>
			</input>
			<output>
				<port id="2" precision="FP16">
					<dim>256</dim>
					<dim>256</dim>
					<dim>1</dim>
					<dim>1</dim>
				</port>
			</output>
		</layer>
		<layer id="335" name="/model.8/cv1/conv/Conv/WithoutBiases" type="Convolution" version="opset1">
			<data strides="1, 1" dilations="1, 1" pads_begin="0, 0" pads_end="0, 0" auto_pad="explicit" />
			<input>
				<port id="0" precision="FP16">
					<dim>1</dim>
					<dim>256</dim>
					<dim>10</dim>
					<dim>10</dim>
				</port>
				<port id="1" precision="FP16">
					<dim>256</dim>
					<dim>256</dim>
					<dim>1</dim>
					<dim>1</dim>
				</port>
			</input>
			<output>
				<port id="2" precision="FP16">
					<dim>1</dim>
					<dim>256</dim>
					<dim>10</dim>
					<dim>10</dim>
				</port>
			</output>
		</layer>
		<layer id="336" name="Reshape_407" type="Const" version="opset1">
			<data element_type="f16" shape="1, 256, 1, 1" offset="682334" size="512" />
			<output>
				<port id="0" precision="FP16">
					<dim>1</dim>
					<dim>256</dim>
					<dim>1</dim>
					<dim>1</dim>
				</port>
			</output>
		</layer>
		<layer id="337" name="/model.8/cv1/conv/Conv" type="Add" version="opset1">
			<data auto_broadcast="numpy" />
			<input>
				<port id="0" precision="FP16">
					<dim>1</dim>
					<dim>256</dim>
					<dim>10</dim>
					<dim>10</dim>
				</port>
				<port id="1" precision="FP16">
					<dim>1</dim>
					<dim>256</dim>
					<dim>1</dim>
					<dim>1</dim>
				</port>
			</input>
			<output>
				<port id="2" precision="FP16" names="/model.8/cv1/conv/Conv_output_0">
					<dim>1</dim>
					<dim>256</dim>
					<dim>10</dim>
					<dim>10</dim>
				</port>
			</output>
		</layer>
		<layer id="338" name="/model.8/cv1/act/Mul" type="Swish" version="opset4">
			<input>
				<port id="0" precision="FP16">
					<dim>1</dim>
					<dim>256</dim>
					<dim>10</dim>
					<dim>10</dim>
				</port>
			</input>
			<output>
				<port id="1" precision="FP16" names="/model.8/cv1/act/Mul_output_0">
					<dim>1</dim>
					<dim>256</dim>
					<dim>10</dim>
					<dim>10</dim>
				</port>
			</output>
		</layer>
		<layer id="339" name="/model.8/cv1/act/Mul/fq_output_0/input_low" type="Const" version="opset1">
			<data element_type="f16" shape="" offset="71466" size="2" />
			<output>
				<port id="0" precision="FP16" />
			</output>
		</layer>
		<layer id="340" name="/model.8/cv1/act/Mul/fq_output_0/input_high" type="Const" version="opset1">
			<data element_type="f16" shape="" offset="682846" size="2" />
			<output>
				<port id="0" precision="FP16" />
			</output>
		</layer>
		<layer id="341" name="/model.8/cv1/act/Mul/fq_output_0/output_low" type="Const" version="opset1">
			<data element_type="f16" shape="" offset="71466" size="2" />
			<output>
				<port id="0" precision="FP16" />
			</output>
		</layer>
		<layer id="342" name="/model.8/cv1/act/Mul/fq_output_0/output_high" type="Const" version="opset1">
			<data element_type="f16" shape="" offset="682846" size="2" />
			<output>
				<port id="0" precision="FP16" />
			</output>
		</layer>
		<layer id="343" name="/model.8/cv1/act/Mul/fq_output_0" type="FakeQuantize" version="opset1">
			<data levels="256" auto_broadcast="numpy" />
			<input>
				<port id="0" precision="FP16">
					<dim>1</dim>
					<dim>256</dim>
					<dim>10</dim>
					<dim>10</dim>
				</port>
				<port id="1" precision="FP16" />
				<port id="2" precision="FP16" />
				<port id="3" precision="FP16" />
				<port id="4" precision="FP16" />
			</input>
			<output>
				<port id="5" precision="FP16">
					<dim>1</dim>
					<dim>256</dim>
					<dim>10</dim>
					<dim>10</dim>
				</port>
			</output>
		</layer>
		<layer id="344" name="Constant_412" type="Const" version="opset1">
			<data element_type="i64" shape="" offset="14800" size="8" />
			<output>
				<port id="0" precision="I64" />
			</output>
		</layer>
		<layer id="345" name="onnx::Split_292" type="Const" version="opset1">
			<data element_type="i64" shape="2" offset="682848" size="16" />
			<output>
				<port id="0" precision="I64" names="onnx::Split_292">
					<dim>2</dim>
				</port>
			</output>
		</layer>
		<layer id="346" name="/model.8/Split" type="VariadicSplit" version="opset1">
			<input>
				<port id="0" precision="FP16">
					<dim>1</dim>
					<dim>256</dim>
					<dim>10</dim>
					<dim>10</dim>
				</port>
				<port id="1" precision="I64" />
				<port id="2" precision="I64">
					<dim>2</dim>
				</port>
			</input>
			<output>
				<port id="3" precision="FP16" names="/model.8/Split_output_0">
					<dim>1</dim>
					<dim>128</dim>
					<dim>10</dim>
					<dim>10</dim>
				</port>
				<port id="4" precision="FP16" names="/model.8/Split_output_1">
					<dim>1</dim>
					<dim>128</dim>
					<dim>10</dim>
					<dim>10</dim>
				</port>
			</output>
		</layer>
		<layer id="347" name="Constant_579048" type="Const" version="opset1">
			<data element_type="i8" shape="64, 128, 1, 1" offset="682864" size="8192" />
			<output>
				<port id="0" precision="I8">
					<dim>64</dim>
					<dim>128</dim>
					<dim>1</dim>
					<dim>1</dim>
				</port>
			</output>
		</layer>
		<layer id="348" name="Convert_579049" type="Convert" version="opset1">
			<data destination_type="f16" />
			<input>
				<port id="0" precision="I8">
					<dim>64</dim>
					<dim>128</dim>
					<dim>1</dim>
					<dim>1</dim>
				</port>
			</input>
			<output>
				<port id="1" precision="FP16">
					<dim>64</dim>
					<dim>128</dim>
					<dim>1</dim>
					<dim>1</dim>
				</port>
			</output>
		</layer>
		<layer id="349" name="Constant_579050" type="Const" version="opset1">
			<data element_type="f16" shape="64, 1, 1, 1" offset="691056" size="128" />
			<output>
				<port id="0" precision="FP16">
					<dim>64</dim>
					<dim>1</dim>
					<dim>1</dim>
					<dim>1</dim>
				</port>
			</output>
		</layer>
		<layer id="350" name="/model.8/m.0/cv1/conv/Conv/WithoutBiases/fq_weights_1" type="Multiply" version="opset1">
			<data auto_broadcast="numpy" />
			<input>
				<port id="0" precision="FP16">
					<dim>64</dim>
					<dim>128</dim>
					<dim>1</dim>
					<dim>1</dim>
				</port>
				<port id="1" precision="FP16">
					<dim>64</dim>
					<dim>1</dim>
					<dim>1</dim>
					<dim>1</dim>
				</port>
			</input>
			<output>
				<port id="2" precision="FP16">
					<dim>64</dim>
					<dim>128</dim>
					<dim>1</dim>
					<dim>1</dim>
				</port>
			</output>
		</layer>
		<layer id="351" name="/model.8/m.0/cv1/conv/Conv/WithoutBiases" type="Convolution" version="opset1">
			<data strides="1, 1" dilations="1, 1" pads_begin="0, 0" pads_end="0, 0" auto_pad="explicit" />
			<input>
				<port id="0" precision="FP16">
					<dim>1</dim>
					<dim>128</dim>
					<dim>10</dim>
					<dim>10</dim>
				</port>
				<port id="1" precision="FP16">
					<dim>64</dim>
					<dim>128</dim>
					<dim>1</dim>
					<dim>1</dim>
				</port>
			</input>
			<output>
				<port id="2" precision="FP16">
					<dim>1</dim>
					<dim>64</dim>
					<dim>10</dim>
					<dim>10</dim>
				</port>
			</output>
		</layer>
		<layer id="352" name="Reshape_427" type="Const" version="opset1">
			<data element_type="f16" shape="1, 64, 1, 1" offset="691184" size="128" />
			<output>
				<port id="0" precision="FP16">
					<dim>1</dim>
					<dim>64</dim>
					<dim>1</dim>
					<dim>1</dim>
				</port>
			</output>
		</layer>
		<layer id="353" name="/model.8/m.0/cv1/conv/Conv" type="Add" version="opset1">
			<data auto_broadcast="numpy" />
			<input>
				<port id="0" precision="FP16">
					<dim>1</dim>
					<dim>64</dim>
					<dim>10</dim>
					<dim>10</dim>
				</port>
				<port id="1" precision="FP16">
					<dim>1</dim>
					<dim>64</dim>
					<dim>1</dim>
					<dim>1</dim>
				</port>
			</input>
			<output>
				<port id="2" precision="FP16" names="/model.8/m.0/cv1/conv/Conv_output_0">
					<dim>1</dim>
					<dim>64</dim>
					<dim>10</dim>
					<dim>10</dim>
				</port>
			</output>
		</layer>
		<layer id="354" name="/model.8/m.0/cv1/act/Mul" type="Swish" version="opset4">
			<input>
				<port id="0" precision="FP16">
					<dim>1</dim>
					<dim>64</dim>
					<dim>10</dim>
					<dim>10</dim>
				</port>
			</input>
			<output>
				<port id="1" precision="FP16" names="/model.8/m.0/cv1/act/Mul_output_0">
					<dim>1</dim>
					<dim>64</dim>
					<dim>10</dim>
					<dim>10</dim>
				</port>
			</output>
		</layer>
		<layer id="355" name="/model.8/m.0/cv1/act/Mul/fq_output_0/input_low" type="Const" version="opset1">
			<data element_type="f16" shape="" offset="20560" size="2" />
			<output>
				<port id="0" precision="FP16" />
			</output>
		</layer>
		<layer id="356" name="/model.8/m.0/cv1/act/Mul/fq_output_0/input_high" type="Const" version="opset1">
			<data element_type="f16" shape="" offset="691312" size="2" />
			<output>
				<port id="0" precision="FP16" />
			</output>
		</layer>
		<layer id="357" name="/model.8/m.0/cv1/act/Mul/fq_output_0/output_low" type="Const" version="opset1">
			<data element_type="f16" shape="" offset="20560" size="2" />
			<output>
				<port id="0" precision="FP16" />
			</output>
		</layer>
		<layer id="358" name="/model.8/m.0/cv1/act/Mul/fq_output_0/output_high" type="Const" version="opset1">
			<data element_type="f16" shape="" offset="691312" size="2" />
			<output>
				<port id="0" precision="FP16" />
			</output>
		</layer>
		<layer id="359" name="/model.8/m.0/cv1/act/Mul/fq_output_0" type="FakeQuantize" version="opset1">
			<data levels="256" auto_broadcast="numpy" />
			<input>
				<port id="0" precision="FP16">
					<dim>1</dim>
					<dim>64</dim>
					<dim>10</dim>
					<dim>10</dim>
				</port>
				<port id="1" precision="FP16" />
				<port id="2" precision="FP16" />
				<port id="3" precision="FP16" />
				<port id="4" precision="FP16" />
			</input>
			<output>
				<port id="5" precision="FP16">
					<dim>1</dim>
					<dim>64</dim>
					<dim>10</dim>
					<dim>10</dim>
				</port>
			</output>
		</layer>
		<layer id="360" name="Constant_579052" type="Const" version="opset1">
			<data element_type="i8" shape="64, 64, 3, 3" offset="691314" size="36864" />
			<output>
				<port id="0" precision="I8">
					<dim>64</dim>
					<dim>64</dim>
					<dim>3</dim>
					<dim>3</dim>
				</port>
			</output>
		</layer>
		<layer id="361" name="Convert_579053" type="Convert" version="opset1">
			<data destination_type="f16" />
			<input>
				<port id="0" precision="I8">
					<dim>64</dim>
					<dim>64</dim>
					<dim>3</dim>
					<dim>3</dim>
				</port>
			</input>
			<output>
				<port id="1" precision="FP16">
					<dim>64</dim>
					<dim>64</dim>
					<dim>3</dim>
					<dim>3</dim>
				</port>
			</output>
		</layer>
		<layer id="362" name="Constant_579054" type="Const" version="opset1">
			<data element_type="f16" shape="64, 1, 1, 1" offset="728178" size="128" />
			<output>
				<port id="0" precision="FP16">
					<dim>64</dim>
					<dim>1</dim>
					<dim>1</dim>
					<dim>1</dim>
				</port>
			</output>
		</layer>
		<layer id="363" name="/model.8/m.0/m/m.0/cv1/conv/Conv/WithoutBiases/fq_weights_1" type="Multiply" version="opset1">
			<data auto_broadcast="numpy" />
			<input>
				<port id="0" precision="FP16">
					<dim>64</dim>
					<dim>64</dim>
					<dim>3</dim>
					<dim>3</dim>
				</port>
				<port id="1" precision="FP16">
					<dim>64</dim>
					<dim>1</dim>
					<dim>1</dim>
					<dim>1</dim>
				</port>
			</input>
			<output>
				<port id="2" precision="FP16">
					<dim>64</dim>
					<dim>64</dim>
					<dim>3</dim>
					<dim>3</dim>
				</port>
			</output>
		</layer>
		<layer id="364" name="/model.8/m.0/m/m.0/cv1/conv/Conv/WithoutBiases" type="Convolution" version="opset1">
			<data strides="1, 1" dilations="1, 1" pads_begin="1, 1" pads_end="1, 1" auto_pad="explicit" />
			<input>
				<port id="0" precision="FP16">
					<dim>1</dim>
					<dim>64</dim>
					<dim>10</dim>
					<dim>10</dim>
				</port>
				<port id="1" precision="FP16">
					<dim>64</dim>
					<dim>64</dim>
					<dim>3</dim>
					<dim>3</dim>
				</port>
			</input>
			<output>
				<port id="2" precision="FP16">
					<dim>1</dim>
					<dim>64</dim>
					<dim>10</dim>
					<dim>10</dim>
				</port>
			</output>
		</layer>
		<layer id="365" name="Reshape_461" type="Const" version="opset1">
			<data element_type="f16" shape="1, 64, 1, 1" offset="728306" size="128" />
			<output>
				<port id="0" precision="FP16">
					<dim>1</dim>
					<dim>64</dim>
					<dim>1</dim>
					<dim>1</dim>
				</port>
			</output>
		</layer>
		<layer id="366" name="/model.8/m.0/m/m.0/cv1/conv/Conv" type="Add" version="opset1">
			<data auto_broadcast="numpy" />
			<input>
				<port id="0" precision="FP16">
					<dim>1</dim>
					<dim>64</dim>
					<dim>10</dim>
					<dim>10</dim>
				</port>
				<port id="1" precision="FP16">
					<dim>1</dim>
					<dim>64</dim>
					<dim>1</dim>
					<dim>1</dim>
				</port>
			</input>
			<output>
				<port id="2" precision="FP16" names="/model.8/m.0/m/m.0/cv1/conv/Conv_output_0">
					<dim>1</dim>
					<dim>64</dim>
					<dim>10</dim>
					<dim>10</dim>
				</port>
			</output>
		</layer>
		<layer id="367" name="/model.8/m.0/m/m.0/cv1/act/Mul" type="Swish" version="opset4">
			<input>
				<port id="0" precision="FP16">
					<dim>1</dim>
					<dim>64</dim>
					<dim>10</dim>
					<dim>10</dim>
				</port>
			</input>
			<output>
				<port id="1" precision="FP16" names="/model.8/m.0/m/m.0/cv1/act/Mul_output_0">
					<dim>1</dim>
					<dim>64</dim>
					<dim>10</dim>
					<dim>10</dim>
				</port>
			</output>
		</layer>
		<layer id="368" name="/model.8/m.0/m/m.0/cv1/act/Mul/fq_output_0/input_low" type="Const" version="opset1">
			<data element_type="f16" shape="" offset="728434" size="2" />
			<output>
				<port id="0" precision="FP16" />
			</output>
		</layer>
		<layer id="369" name="/model.8/m.0/m/m.0/cv1/act/Mul/fq_output_0/input_high" type="Const" version="opset1">
			<data element_type="f16" shape="" offset="728436" size="2" />
			<output>
				<port id="0" precision="FP16" />
			</output>
		</layer>
		<layer id="370" name="/model.8/m.0/m/m.0/cv1/act/Mul/fq_output_0/output_low" type="Const" version="opset1">
			<data element_type="f16" shape="" offset="728434" size="2" />
			<output>
				<port id="0" precision="FP16" />
			</output>
		</layer>
		<layer id="371" name="/model.8/m.0/m/m.0/cv1/act/Mul/fq_output_0/output_high" type="Const" version="opset1">
			<data element_type="f16" shape="" offset="728436" size="2" />
			<output>
				<port id="0" precision="FP16" />
			</output>
		</layer>
		<layer id="372" name="/model.8/m.0/m/m.0/cv1/act/Mul/fq_output_0" type="FakeQuantize" version="opset1">
			<data levels="256" auto_broadcast="numpy" />
			<input>
				<port id="0" precision="FP16">
					<dim>1</dim>
					<dim>64</dim>
					<dim>10</dim>
					<dim>10</dim>
				</port>
				<port id="1" precision="FP16" />
				<port id="2" precision="FP16" />
				<port id="3" precision="FP16" />
				<port id="4" precision="FP16" />
			</input>
			<output>
				<port id="5" precision="FP16">
					<dim>1</dim>
					<dim>64</dim>
					<dim>10</dim>
					<dim>10</dim>
				</port>
			</output>
		</layer>
		<layer id="373" name="Constant_579056" type="Const" version="opset1">
			<data element_type="i8" shape="64, 64, 3, 3" offset="728438" size="36864" />
			<output>
				<port id="0" precision="I8">
					<dim>64</dim>
					<dim>64</dim>
					<dim>3</dim>
					<dim>3</dim>
				</port>
			</output>
		</layer>
		<layer id="374" name="Convert_579057" type="Convert" version="opset1">
			<data destination_type="f16" />
			<input>
				<port id="0" precision="I8">
					<dim>64</dim>
					<dim>64</dim>
					<dim>3</dim>
					<dim>3</dim>
				</port>
			</input>
			<output>
				<port id="1" precision="FP16">
					<dim>64</dim>
					<dim>64</dim>
					<dim>3</dim>
					<dim>3</dim>
				</port>
			</output>
		</layer>
		<layer id="375" name="Constant_579058" type="Const" version="opset1">
			<data element_type="f16" shape="64, 1, 1, 1" offset="765302" size="128" />
			<output>
				<port id="0" precision="FP16">
					<dim>64</dim>
					<dim>1</dim>
					<dim>1</dim>
					<dim>1</dim>
				</port>
			</output>
		</layer>
		<layer id="376" name="/model.8/m.0/m/m.0/cv2/conv/Conv/WithoutBiases/fq_weights_1" type="Multiply" version="opset1">
			<data auto_broadcast="numpy" />
			<input>
				<port id="0" precision="FP16">
					<dim>64</dim>
					<dim>64</dim>
					<dim>3</dim>
					<dim>3</dim>
				</port>
				<port id="1" precision="FP16">
					<dim>64</dim>
					<dim>1</dim>
					<dim>1</dim>
					<dim>1</dim>
				</port>
			</input>
			<output>
				<port id="2" precision="FP16">
					<dim>64</dim>
					<dim>64</dim>
					<dim>3</dim>
					<dim>3</dim>
				</port>
			</output>
		</layer>
		<layer id="377" name="/model.8/m.0/m/m.0/cv2/conv/Conv/WithoutBiases" type="Convolution" version="opset1">
			<data strides="1, 1" dilations="1, 1" pads_begin="1, 1" pads_end="1, 1" auto_pad="explicit" />
			<input>
				<port id="0" precision="FP16">
					<dim>1</dim>
					<dim>64</dim>
					<dim>10</dim>
					<dim>10</dim>
				</port>
				<port id="1" precision="FP16">
					<dim>64</dim>
					<dim>64</dim>
					<dim>3</dim>
					<dim>3</dim>
				</port>
			</input>
			<output>
				<port id="2" precision="FP16">
					<dim>1</dim>
					<dim>64</dim>
					<dim>10</dim>
					<dim>10</dim>
				</port>
			</output>
		</layer>
		<layer id="378" name="Reshape_478" type="Const" version="opset1">
			<data element_type="f16" shape="1, 64, 1, 1" offset="765430" size="128" />
			<output>
				<port id="0" precision="FP16">
					<dim>1</dim>
					<dim>64</dim>
					<dim>1</dim>
					<dim>1</dim>
				</port>
			</output>
		</layer>
		<layer id="379" name="/model.8/m.0/m/m.0/cv2/conv/Conv" type="Add" version="opset1">
			<data auto_broadcast="numpy" />
			<input>
				<port id="0" precision="FP16">
					<dim>1</dim>
					<dim>64</dim>
					<dim>10</dim>
					<dim>10</dim>
				</port>
				<port id="1" precision="FP16">
					<dim>1</dim>
					<dim>64</dim>
					<dim>1</dim>
					<dim>1</dim>
				</port>
			</input>
			<output>
				<port id="2" precision="FP16" names="/model.8/m.0/m/m.0/cv2/conv/Conv_output_0">
					<dim>1</dim>
					<dim>64</dim>
					<dim>10</dim>
					<dim>10</dim>
				</port>
			</output>
		</layer>
		<layer id="380" name="/model.8/m.0/m/m.0/cv2/act/Mul" type="Swish" version="opset4">
			<input>
				<port id="0" precision="FP16">
					<dim>1</dim>
					<dim>64</dim>
					<dim>10</dim>
					<dim>10</dim>
				</port>
			</input>
			<output>
				<port id="1" precision="FP16" names="/model.8/m.0/m/m.0/cv2/act/Mul_output_0">
					<dim>1</dim>
					<dim>64</dim>
					<dim>10</dim>
					<dim>10</dim>
				</port>
			</output>
		</layer>
		<layer id="381" name="/model.8/m.0/m/m.0/cv2/act/Mul/fq_output_0/input_low" type="Const" version="opset1">
			<data element_type="f16" shape="" offset="765558" size="2" />
			<output>
				<port id="0" precision="FP16" />
			</output>
		</layer>
		<layer id="382" name="/model.8/m.0/m/m.0/cv2/act/Mul/fq_output_0/input_high" type="Const" version="opset1">
			<data element_type="f16" shape="" offset="765560" size="2" />
			<output>
				<port id="0" precision="FP16" />
			</output>
		</layer>
		<layer id="383" name="/model.8/m.0/m/m.0/cv2/act/Mul/fq_output_0/output_low" type="Const" version="opset1">
			<data element_type="f16" shape="" offset="765558" size="2" />
			<output>
				<port id="0" precision="FP16" />
			</output>
		</layer>
		<layer id="384" name="/model.8/m.0/m/m.0/cv2/act/Mul/fq_output_0/output_high" type="Const" version="opset1">
			<data element_type="f16" shape="" offset="765560" size="2" />
			<output>
				<port id="0" precision="FP16" />
			</output>
		</layer>
		<layer id="385" name="/model.8/m.0/m/m.0/cv2/act/Mul/fq_output_0" type="FakeQuantize" version="opset1">
			<data levels="256" auto_broadcast="numpy" />
			<input>
				<port id="0" precision="FP16">
					<dim>1</dim>
					<dim>64</dim>
					<dim>10</dim>
					<dim>10</dim>
				</port>
				<port id="1" precision="FP16" />
				<port id="2" precision="FP16" />
				<port id="3" precision="FP16" />
…
		<edge from-layer="911" from-port="5" to-layer="916" to-port="0" />
		<edge from-layer="911" from-port="5" to-layer="1355" to-port="0" />
		<edge from-layer="912" from-port="0" to-layer="913" to-port="0" />
		<edge from-layer="913" from-port="1" to-layer="915" to-port="0" />
		<edge from-layer="914" from-port="0" to-layer="915" to-port="1" />
		<edge from-layer="915" from-port="2" to-layer="916" to-port="1" />
		<edge from-layer="916" from-port="2" to-layer="918" to-port="0" />
		<edge from-layer="917" from-port="0" to-layer="918" to-port="1" />
		<edge from-layer="918" from-port="2" to-layer="919" to-port="0" />
		<edge from-layer="919" from-port="1" to-layer="924" to-port="0" />
		<edge from-layer="920" from-port="0" to-layer="924" to-port="1" />
		<edge from-layer="921" from-port="0" to-layer="924" to-port="2" />
		<edge from-layer="922" from-port="0" to-layer="924" to-port="3" />
		<edge from-layer="923" from-port="0" to-layer="924" to-port="4" />
		<edge from-layer="924" from-port="5" to-layer="929" to-port="0" />
		<edge from-layer="925" from-port="0" to-layer="926" to-port="0" />
		<edge from-layer="926" from-port="1" to-layer="928" to-port="0" />
		<edge from-layer="927" from-port="0" to-layer="928" to-port="1" />
		<edge from-layer="928" from-port="2" to-layer="929" to-port="1" />
		<edge from-layer="929" from-port="2" to-layer="931" to-port="0" />
		<edge from-layer="930" from-port="0" to-layer="931" to-port="1" />
		<edge from-layer="931" from-port="2" to-layer="932" to-port="0" />
		<edge from-layer="932" from-port="1" to-layer="937" to-port="0" />
		<edge from-layer="933" from-port="0" to-layer="937" to-port="1" />
		<edge from-layer="934" from-port="0" to-layer="937" to-port="2" />
		<edge from-layer="935" from-port="0" to-layer="937" to-port="3" />
		<edge from-layer="936" from-port="0" to-layer="937" to-port="4" />
		<edge from-layer="937" from-port="5" to-layer="942" to-port="0" />
		<edge from-layer="938" from-port="0" to-layer="939" to-port="0" />
		<edge from-layer="939" from-port="1" to-layer="941" to-port="0" />
		<edge from-layer="940" from-port="0" to-layer="941" to-port="1" />
		<edge from-layer="941" from-port="2" to-layer="942" to-port="1" />
		<edge from-layer="942" from-port="2" to-layer="944" to-port="0" />
		<edge from-layer="943" from-port="0" to-layer="944" to-port="1" />
		<edge from-layer="944" from-port="2" to-layer="946" to-port="0" />
		<edge from-layer="945" from-port="0" to-layer="946" to-port="1" />
		<edge from-layer="945" from-port="0" to-layer="1127" to-port="1" />
		<edge from-layer="945" from-port="0" to-layer="1335" to-port="1" />
		<edge from-layer="946" from-port="2" to-layer="1336" to-port="0" />
		<edge from-layer="947" from-port="0" to-layer="948" to-port="0" />
		<edge from-layer="948" from-port="1" to-layer="950" to-port="0" />
		<edge from-layer="949" from-port="0" to-layer="950" to-port="1" />
		<edge from-layer="950" from-port="2" to-layer="951" to-port="1" />
		<edge from-layer="951" from-port="2" to-layer="953" to-port="0" />
		<edge from-layer="952" from-port="0" to-layer="953" to-port="1" />
		<edge from-layer="953" from-port="2" to-layer="954" to-port="0" />
		<edge from-layer="954" from-port="1" to-layer="959" to-port="0" />
		<edge from-layer="955" from-port="0" to-layer="959" to-port="1" />
		<edge from-layer="956" from-port="0" to-layer="959" to-port="2" />
		<edge from-layer="957" from-port="0" to-layer="959" to-port="3" />
		<edge from-layer="958" from-port="0" to-layer="959" to-port="4" />
		<edge from-layer="959" from-port="5" to-layer="960" to-port="0" />
		<edge from-layer="960" from-port="2" to-layer="965" to-port="0" />
		<edge from-layer="961" from-port="0" to-layer="962" to-port="0" />
		<edge from-layer="962" from-port="1" to-layer="964" to-port="0" />
		<edge from-layer="963" from-port="0" to-layer="964" to-port="1" />
		<edge from-layer="964" from-port="2" to-layer="965" to-port="1" />
		<edge from-layer="965" from-port="2" to-layer="967" to-port="0" />
		<edge from-layer="966" from-port="0" to-layer="967" to-port="1" />
		<edge from-layer="967" from-port="2" to-layer="968" to-port="0" />
		<edge from-layer="968" from-port="1" to-layer="973" to-port="0" />
		<edge from-layer="969" from-port="0" to-layer="973" to-port="1" />
		<edge from-layer="970" from-port="0" to-layer="973" to-port="2" />
		<edge from-layer="971" from-port="0" to-layer="973" to-port="3" />
		<edge from-layer="972" from-port="0" to-layer="973" to-port="4" />
		<edge from-layer="973" from-port="5" to-layer="975" to-port="0" />
		<edge from-layer="974" from-port="0" to-layer="975" to-port="1" />
		<edge from-layer="975" from-port="3" to-layer="1080" to-port="0" />
		<edge from-layer="975" from-port="4" to-layer="1080" to-port="1" />
		<edge from-layer="975" from-port="4" to-layer="1057" to-port="0" />
		<edge from-layer="975" from-port="4" to-layer="980" to-port="0" />
		<edge from-layer="976" from-port="0" to-layer="977" to-port="0" />
		<edge from-layer="977" from-port="1" to-layer="979" to-port="0" />
		<edge from-layer="978" from-port="0" to-layer="979" to-port="1" />
		<edge from-layer="979" from-port="2" to-layer="980" to-port="1" />
		<edge from-layer="980" from-port="2" to-layer="982" to-port="0" />
		<edge from-layer="981" from-port="0" to-layer="982" to-port="1" />
		<edge from-layer="982" from-port="2" to-layer="983" to-port="0" />
		<edge from-layer="983" from-port="1" to-layer="988" to-port="0" />
		<edge from-layer="984" from-port="0" to-layer="988" to-port="1" />
		<edge from-layer="985" from-port="0" to-layer="988" to-port="2" />
		<edge from-layer="986" from-port="0" to-layer="988" to-port="3" />
		<edge from-layer="987" from-port="0" to-layer="988" to-port="4" />
		<edge from-layer="988" from-port="5" to-layer="993" to-port="0" />
		<edge from-layer="988" from-port="5" to-layer="1015" to-port="0" />
		<edge from-layer="989" from-port="0" to-layer="990" to-port="0" />
		<edge from-layer="990" from-port="1" to-layer="992" to-port="0" />
		<edge from-layer="991" from-port="0" to-layer="992" to-port="1" />
		<edge from-layer="992" from-port="2" to-layer="993" to-port="1" />
		<edge from-layer="993" from-port="2" to-layer="995" to-port="0" />
		<edge from-layer="994" from-port="0" to-layer="995" to-port="1" />
		<edge from-layer="995" from-port="2" to-layer="996" to-port="0" />
		<edge from-layer="996" from-port="1" to-layer="1001" to-port="0" />
		<edge from-layer="997" from-port="0" to-layer="1001" to-port="1" />
		<edge from-layer="998" from-port="0" to-layer="1001" to-port="2" />
		<edge from-layer="999" from-port="0" to-layer="1001" to-port="3" />
		<edge from-layer="1000" from-port="0" to-layer="1001" to-port="4" />
		<edge from-layer="1001" from-port="5" to-layer="1006" to-port="0" />
		<edge from-layer="1002" from-port="0" to-layer="1003" to-port="0" />
		<edge from-layer="1003" from-port="1" to-layer="1005" to-port="0" />
		<edge from-layer="1004" from-port="0" to-layer="1005" to-port="1" />
		<edge from-layer="1005" from-port="2" to-layer="1006" to-port="1" />
		<edge from-layer="1006" from-port="2" to-layer="1008" to-port="0" />
		<edge from-layer="1007" from-port="0" to-layer="1008" to-port="1" />
		<edge from-layer="1008" from-port="2" to-layer="1009" to-port="0" />
		<edge from-layer="1009" from-port="1" to-layer="1014" to-port="0" />
		<edge from-layer="1010" from-port="0" to-layer="1014" to-port="1" />
		<edge from-layer="1011" from-port="0" to-layer="1014" to-port="2" />
		<edge from-layer="1012" from-port="0" to-layer="1014" to-port="3" />
		<edge from-layer="1013" from-port="0" to-layer="1014" to-port="4" />
		<edge from-layer="1014" from-port="5" to-layer="1015" to-port="1" />
		<edge from-layer="1015" from-port="2" to-layer="1020" to-port="0" />
		<edge from-layer="1016" from-port="0" to-layer="1020" to-port="1" />
		<edge from-layer="1017" from-port="0" to-layer="1020" to-port="2" />
		<edge from-layer="1018" from-port="0" to-layer="1020" to-port="3" />
		<edge from-layer="1019" from-port="0" to-layer="1020" to-port="4" />
		<edge from-layer="1020" from-port="5" to-layer="1025" to-port="0" />
		<edge from-layer="1020" from-port="5" to-layer="1047" to-port="0" />
		<edge from-layer="1021" from-port="0" to-layer="1022" to-port="0" />
		<edge from-layer="1022" from-port="1" to-layer="1024" to-port="0" />
		<edge from-layer="1023" from-port="0" to-layer="1024" to-port="1" />
		<edge from-layer="1024" from-port="2" to-layer="1025" to-port="1" />
		<edge from-layer="1025" from-port="2" to-layer="1027" to-port="0" />
		<edge from-layer="1026" from-port="0" to-layer="1027" to-port="1" />
		<edge from-layer="1027" from-port="2" to-layer="1028" to-port="0" />
		<edge from-layer="1028" from-port="1" to-layer="1033" to-port="0" />
		<edge from-layer="1029" from-port="0" to-layer="1033" to-port="1" />
		<edge from-layer="1030" from-port="0" to-layer="1033" to-port="2" />
		<edge from-layer="1031" from-port="0" to-layer="1033" to-port="3" />
		<edge from-layer="1032" from-port="0" to-layer="1033" to-port="4" />
		<edge from-layer="1033" from-port="5" to-layer="1038" to-port="0" />
		<edge from-layer="1034" from-port="0" to-layer="1035" to-port="0" />
		<edge from-layer="1035" from-port="1" to-layer="1037" to-port="0" />
		<edge from-layer="1036" from-port="0" to-layer="1037" to-port="1" />
		<edge from-layer="1037" from-port="2" to-layer="1038" to-port="1" />
		<edge from-layer="1038" from-port="2" to-layer="1040" to-port="0" />
		<edge from-layer="1039" from-port="0" to-layer="1040" to-port="1" />
		<edge from-layer="1040" from-port="2" to-layer="1041" to-port="0" />
		<edge from-layer="1041" from-port="1" to-layer="1046" to-port="0" />
		<edge from-layer="1042" from-port="0" to-layer="1046" to-port="1" />
		<edge from-layer="1043" from-port="0" to-layer="1046" to-port="2" />
		<edge from-layer="1044" from-port="0" to-layer="1046" to-port="3" />
		<edge from-layer="1045" from-port="0" to-layer="1046" to-port="4" />
		<edge from-layer="1046" from-port="5" to-layer="1047" to-port="1" />
		<edge from-layer="1047" from-port="2" to-layer="1052" to-port="0" />
		<edge from-layer="1048" from-port="0" to-layer="1052" to-port="1" />
		<edge from-layer="1049" from-port="0" to-layer="1052" to-port="2" />
		<edge from-layer="1050" from-port="0" to-layer="1052" to-port="3" />
		<edge from-layer="1051" from-port="0" to-layer="1052" to-port="4" />
		<edge from-layer="1052" from-port="5" to-layer="1066" to-port="0" />
		<edge from-layer="1053" from-port="0" to-layer="1054" to-port="0" />
		<edge from-layer="1054" from-port="1" to-layer="1056" to-port="0" />
		<edge from-layer="1055" from-port="0" to-layer="1056" to-port="1" />
		<edge from-layer="1056" from-port="2" to-layer="1057" to-port="1" />
		<edge from-layer="1057" from-port="2" to-layer="1059" to-port="0" />
		<edge from-layer="1058" from-port="0" to-layer="1059" to-port="1" />
		<edge from-layer="1059" from-port="2" to-layer="1060" to-port="0" />
		<edge from-layer="1060" from-port="1" to-layer="1065" to-port="0" />
		<edge from-layer="1061" from-port="0" to-layer="1065" to-port="1" />
		<edge from-layer="1062" from-port="0" to-layer="1065" to-port="2" />
		<edge from-layer="1063" from-port="0" to-layer="1065" to-port="3" />
		<edge from-layer="1064" from-port="0" to-layer="1065" to-port="4" />
		<edge from-layer="1065" from-port="5" to-layer="1066" to-port="1" />
		<edge from-layer="1066" from-port="2" to-layer="1071" to-port="0" />
		<edge from-layer="1067" from-port="0" to-layer="1068" to-port="0" />
		<edge from-layer="1068" from-port="1" to-layer="1070" to-port="0" />
		<edge from-layer="1069" from-port="0" to-layer="1070" to-port="1" />
		<edge from-layer="1070" from-port="2" to-layer="1071" to-port="1" />
		<edge from-layer="1071" from-port="2" to-layer="1073" to-port="0" />
		<edge from-layer="1072" from-port="0" to-layer="1073" to-port="1" />
		<edge from-layer="1073" from-port="2" to-layer="1074" to-port="0" />
		<edge from-layer="1074" from-port="1" to-layer="1079" to-port="0" />
		<edge from-layer="1075" from-port="0" to-layer="1079" to-port="1" />
		<edge from-layer="1076" from-port="0" to-layer="1079" to-port="2" />
		<edge from-layer="1077" from-port="0" to-layer="1079" to-port="3" />
		<edge from-layer="1078" from-port="0" to-layer="1079" to-port="4" />
		<edge from-layer="1079" from-port="5" to-layer="1080" to-port="2" />
		<edge from-layer="1080" from-port="3" to-layer="1085" to-port="0" />
		<edge from-layer="1081" from-port="0" to-layer="1082" to-port="0" />
		<edge from-layer="1082" from-port="1" to-layer="1084" to-port="0" />
		<edge from-layer="1083" from-port="0" to-layer="1084" to-port="1" />
		<edge from-layer="1084" from-port="2" to-layer="1085" to-port="1" />
		<edge from-layer="1085" from-port="2" to-layer="1087" to-port="0" />
		<edge from-layer="1086" from-port="0" to-layer="1087" to-port="1" />
		<edge from-layer="1087" from-port="2" to-layer="1088" to-port="0" />
		<edge from-layer="1088" from-port="1" to-layer="1093" to-port="0" />
		<edge from-layer="1089" from-port="0" to-layer="1093" to-port="1" />
		<edge from-layer="1090" from-port="0" to-layer="1093" to-port="2" />
		<edge from-layer="1091" from-port="0" to-layer="1093" to-port="3" />
		<edge from-layer="1092" from-port="0" to-layer="1093" to-port="4" />
		<edge from-layer="1093" from-port="5" to-layer="1132" to-port="0" />
		<edge from-layer="1093" from-port="5" to-layer="1098" to-port="0" />
		<edge from-layer="1093" from-port="5" to-layer="1416" to-port="0" />
		<edge from-layer="1094" from-port="0" to-layer="1095" to-port="0" />
		<edge from-layer="1095" from-port="1" to-layer="1097" to-port="0" />
		<edge from-layer="1096" from-port="0" to-layer="1097" to-port="1" />
		<edge from-layer="1097" from-port="2" to-layer="1098" to-port="1" />
		<edge from-layer="1098" from-port="2" to-layer="1100" to-port="0" />
		<edge from-layer="1099" from-port="0" to-layer="1100" to-port="1" />
		<edge from-layer="1100" from-port="2" to-layer="1101" to-port="0" />
		<edge from-layer="1101" from-port="1" to-layer="1106" to-port="0" />
		<edge from-layer="1102" from-port="0" to-layer="1106" to-port="1" />
		<edge from-layer="1103" from-port="0" to-layer="1106" to-port="2" />
		<edge from-layer="1104" from-port="0" to-layer="1106" to-port="3" />
		<edge from-layer="1105" from-port="0" to-layer="1106" to-port="4" />
		<edge from-layer="1106" from-port="5" to-layer="1111" to-port="0" />
		<edge from-layer="1107" from-port="0" to-layer="1108" to-port="0" />
		<edge from-layer="1108" from-port="1" to-layer="1110" to-port="0" />
		<edge from-layer="1109" from-port="0" to-layer="1110" to-port="1" />
		<edge from-layer="1110" from-port="2" to-layer="1111" to-port="1" />
		<edge from-layer="1111" from-port="2" to-layer="1113" to-port="0" />
		<edge from-layer="1112" from-port="0" to-layer="1113" to-port="1" />
		<edge from-layer="1113" from-port="2" to-layer="1114" to-port="0" />
		<edge from-layer="1114" from-port="1" to-layer="1119" to-port="0" />
		<edge from-layer="1115" from-port="0" to-layer="1119" to-port="1" />
		<edge from-layer="1116" from-port="0" to-layer="1119" to-port="2" />
		<edge from-layer="1117" from-port="0" to-layer="1119" to-port="3" />
		<edge from-layer="1118" from-port="0" to-layer="1119" to-port="4" />
		<edge from-layer="1119" from-port="5" to-layer="1124" to-port="0" />
		<edge from-layer="1120" from-port="0" to-layer="1121" to-port="0" />
		<edge from-layer="1121" from-port="1" to-layer="1123" to-port="0" />
		<edge from-layer="1122" from-port="0" to-layer="1123" to-port="1" />
		<edge from-layer="1123" from-port="2" to-layer="1124" to-port="1" />
		<edge from-layer="1124" from-port="2" to-layer="1126" to-port="0" />
		<edge from-layer="1125" from-port="0" to-layer="1126" to-port="1" />
		<edge from-layer="1126" from-port="2" to-layer="1127" to-port="0" />
		<edge from-layer="1127" from-port="2" to-layer="1336" to-port="1" />
		<edge from-layer="1128" from-port="0" to-layer="1129" to-port="0" />
		<edge from-layer="1129" from-port="1" to-layer="1131" to-port="0" />
		<edge from-layer="1130" from-port="0" to-layer="1131" to-port="1" />
		<edge from-layer="1131" from-port="2" to-layer="1132" to-port="1" />
		<edge from-layer="1132" from-port="2" to-layer="1134" to-port="0" />
		<edge from-layer="1133" from-port="0" to-layer="1134" to-port="1" />
		<edge from-layer="1134" from-port="2" to-layer="1135" to-port="0" />
		<edge from-layer="1135" from-port="1" to-layer="1140" to-port="0" />
		<edge from-layer="1136" from-port="0" to-layer="1140" to-port="1" />
		<edge from-layer="1137" from-port="0" to-layer="1140" to-port="2" />
		<edge from-layer="1138" from-port="0" to-layer="1140" to-port="3" />
		<edge from-layer="1139" from-port="0" to-layer="1140" to-port="4" />
		<edge from-layer="1140" from-port="5" to-layer="1141" to-port="0" />
		<edge from-layer="1141" from-port="2" to-layer="1146" to-port="0" />
		<edge from-layer="1142" from-port="0" to-layer="1143" to-port="0" />
		<edge from-layer="1143" from-port="1" to-layer="1145" to-port="0" />
		<edge from-layer="1144" from-port="0" to-layer="1145" to-port="1" />
		<edge from-layer="1145" from-port="2" to-layer="1146" to-port="1" />
		<edge from-layer="1146" from-port="2" to-layer="1148" to-port="0" />
		<edge from-layer="1147" from-port="0" to-layer="1148" to-port="1" />
		<edge from-layer="1148" from-port="2" to-layer="1149" to-port="0" />
		<edge from-layer="1149" from-port="1" to-layer="1154" to-port="0" />
		<edge from-layer="1150" from-port="0" to-layer="1154" to-port="1" />
		<edge from-layer="1151" from-port="0" to-layer="1154" to-port="2" />
		<edge from-layer="1152" from-port="0" to-layer="1154" to-port="3" />
		<edge from-layer="1153" from-port="0" to-layer="1154" to-port="4" />
		<edge from-layer="1154" from-port="5" to-layer="1156" to-port="0" />
		<edge from-layer="1155" from-port="0" to-layer="1156" to-port="1" />
		<edge from-layer="1156" from-port="4" to-layer="1161" to-port="0" />
		<edge from-layer="1156" from-port="4" to-layer="1183" to-port="0" />
		<edge from-layer="1156" from-port="3" to-layer="1288" to-port="0" />
		<edge from-layer="1156" from-port="4" to-layer="1288" to-port="1" />
		<edge from-layer="1157" from-port="0" to-layer="1158" to-port="0" />
		<edge from-layer="1158" from-port="1" to-layer="1160" to-port="0" />
		<edge from-layer="1159" from-port="0" to-layer="1160" to-port="1" />
		<edge from-layer="1160" from-port="2" to-layer="1161" to-port="1" />
		<edge from-layer="1161" from-port="2" to-layer="1163" to-port="0" />
		<edge from-layer="1162" from-port="0" to-layer="1163" to-port="1" />
		<edge from-layer="1163" from-port="2" to-layer="1164" to-port="0" />
		<edge from-layer="1164" from-port="1" to-layer="1169" to-port="0" />
		<edge from-layer="1165" from-port="0" to-layer="1169" to-port="1" />
		<edge from-layer="1166" from-port="0" to-layer="1169" to-port="2" />
		<edge from-layer="1167" from-port="0" to-layer="1169" to-port="3" />
		<edge from-layer="1168" from-port="0" to-layer="1169" to-port="4" />
		<edge from-layer="1169" from-port="5" to-layer="1174" to-port="0" />
		<edge from-layer="1170" from-port="0" to-layer="1171" to-port="0" />
		<edge from-layer="1171" from-port="1" to-layer="1173" to-port="0" />
		<edge from-layer="1172" from-port="0" to-layer="1173" to-port="1" />
		<edge from-layer="1173" from-port="2" to-layer="1174" to-port="1" />
		<edge from-layer="1174" from-port="2" to-layer="1176" to-port="0" />
		<edge from-layer="1175" from-port="0" to-layer="1176" to-port="1" />
		<edge from-layer="1176" from-port="2" to-layer="1177" to-port="0" />
		<edge from-layer="1177" from-port="1" to-layer="1182" to-port="0" />
		<edge from-layer="1178" from-port="0" to-layer="1182" to-port="1" />
		<edge from-layer="1179" from-port="0" to-layer="1182" to-port="2" />
		<edge from-layer="1180" from-port="0" to-layer="1182" to-port="3" />
		<edge from-layer="1181" from-port="0" to-layer="1182" to-port="4" />
		<edge from-layer="1182" from-port="5" to-layer="1183" to-port="1" />
		<edge from-layer="1183" from-port="2" to-layer="1188" to-port="0" />
		<edge from-layer="1184" from-port="0" to-layer="1188" to-port="1" />
		<edge from-layer="1185" from-port="0" to-layer="1188" to-port="2" />
		<edge from-layer="1186" from-port="0" to-layer="1188" to-port="3" />
		<edge from-layer="1187" from-port="0" to-layer="1188" to-port="4" />
		<edge from-layer="1188" from-port="5" to-layer="1193" to-port="0" />
		<edge from-layer="1188" from-port="5" to-layer="1251" to-port="0" />
		<edge from-layer="1189" from-port="0" to-layer="1190" to-port="0" />
		<edge from-layer="1190" from-port="1" to-layer="1192" to-port="0" />
		<edge from-layer="1191" from-port="0" to-layer="1192" to-port="1" />
		<edge from-layer="1192" from-port="2" to-layer="1193" to-port="1" />
		<edge from-layer="1193" from-port="2" to-layer="1195" to-port="0" />
		<edge from-layer="1194" from-port="0" to-layer="1195" to-port="1" />
		<edge from-layer="1195" from-port="2" to-layer="1200" to-port="0" />
		<edge from-layer="1196" from-port="0" to-layer="1200" to-port="1" />
		<edge from-layer="1197" from-port="0" to-layer="1200" to-port="2" />
		<edge from-layer="1198" from-port="0" to-layer="1200" to-port="3" />
		<edge from-layer="1199" from-port="0" to-layer="1200" to-port="4" />
		<edge from-layer="1200" from-port="5" to-layer="1201" to-port="0" />
		<edge from-layer="1201" from-port="2" to-layer="1203" to-port="0" />
		<edge from-layer="1202" from-port="0" to-layer="1203" to-port="1" />
		<edge from-layer="1203" from-port="3" to-layer="1204" to-port="0" />
		<edge from-layer="1203" from-port="4" to-layer="1204" to-port="1" />
		<edge from-layer="1203" from-port="5" to-layer="1213" to-port="0" />
		<edge from-layer="1203" from-port="5" to-layer="1220" to-port="0" />
		<edge from-layer="1204" from-port="2" to-layer="1206" to-port="0" />
		<edge from-layer="1205" from-port="0" to-layer="1206" to-port="1" />
		<edge from-layer="1206" from-port="2" to-layer="1207" to-port="0" />
		<edge from-layer="1207" from-port="1" to-layer="1212" to-port="0" />
		<edge from-layer="1208" from-port="0" to-layer="1212" to-port="1" />
		<edge from-layer="1209" from-port="0" to-layer="1212" to-port="2" />
		<edge from-layer="1210" from-port="0" to-layer="1212" to-port="3" />
		<edge from-layer="1211" from-port="0" to-layer="1212" to-port="4" />
		<edge from-layer="1212" from-port="5" to-layer="1213" to-port="1" />
		<edge from-layer="1213" from-port="2" to-layer="1218" to-port="0" />
		<edge from-layer="1214" from-port="0" to-layer="1218" to-port="1" />
		<edge from-layer="1215" from-port="0" to-layer="1218" to-port="2" />
		<edge from-layer="1216" from-port="0" to-layer="1218" to-port="3" />
		<edge from-layer="1217" from-port="0" to-layer="1218" to-port="4" />
		<edge from-layer="1218" from-port="5" to-layer="1219" to-port="0" />
		<edge from-layer="1219" from-port="2" to-layer="1233" to-port="0" />
		<edge from-layer="1220" from-port="2" to-layer="1225" to-port="0" />
		<edge from-layer="1221" from-port="0" to-layer="1222" to-port="0" />
		<edge from-layer="1222" from-port="1" to-layer="1224" to-port="0" />
		<edge from-layer="1223" from-port="0" to-layer="1224" to-port="1" />
		<edge from-layer="1224" from-port="2" to-layer="1225" to-port="1" />
		<edge from-layer="1225" from-port="2" to-layer="1227" to-port="0" />
		<edge from-layer="1226" from-port="0" to-layer="1227" to-port="1" />
		<edge from-layer="1227" from-port="2" to-layer="1232" to-port="0" />
		<edge from-layer="1228" from-port="0" to-layer="1232" to-port="1" />
		<edge from-layer="1229" from-port="0" to-layer="1232" to-port="2" />
		<edge from-layer="1230" from-port="0" to-layer="1232" to-port="3" />
		<edge from-layer="1231" from-port="0" to-layer="1232" to-port="4" />
		<edge from-layer="1232" from-port="5" to-layer="1233" to-port="1" />
		<edge from-layer="1233" from-port="2" to-layer="1238" to-port="0" />
		<edge from-layer="1234" from-port="0" to-layer="1238" to-port="1" />
		<edge from-layer="1235" from-port="0" to-layer="1238" to-port="2" />
		<edge from-layer="1236" from-port="0" to-layer="1238" to-port="3" />
		<edge from-layer="1237" from-port="0" to-layer="1238" to-port="4" />
		<edge from-layer="1238" from-port="5" to-layer="1243" to-port="0" />
		<edge from-layer="1239" from-port="0" to-layer="1240" to-port="0" />
		<edge from-layer="1240" from-port="1" to-layer="1242" to-port="0" />
		<edge from-layer="1241" from-port="0" to-layer="1242" to-port="1" />
		<edge from-layer="1242" from-port="2" to-layer="1243" to-port="1" />
		<edge from-layer="1243" from-port="2" to-layer="1245" to-port="0" />
		<edge from-layer="1244" from-port="0" to-layer="1245" to-port="1" />
		<edge from-layer="1245" from-port="2" to-layer="1250" to-port="0" />
		<edge from-layer="1246" from-port="0" to-layer="1250" to-port="1" />
		<edge from-layer="1247" from-port="0" to-layer="1250" to-port="2" />
		<edge from-layer="1248" from-port="0" to-layer="1250" to-port="3" />
		<edge from-layer="1249" from-port="0" to-layer="1250" to-port="4" />
		<edge from-layer="1250" from-port="5" to-layer="1251" to-port="1" />
		<edge from-layer="1251" from-port="2" to-layer="1256" to-port="0" />
		<edge from-layer="1252" from-port="0" to-layer="1256" to-port="1" />
		<edge from-layer="1253" from-port="0" to-layer="1256" to-port="2" />
		<edge from-layer="1254" from-port="0" to-layer="1256" to-port="3" />
		<edge from-layer="1255" from-port="0" to-layer="1256" to-port="4" />
		<edge from-layer="1256" from-port="5" to-layer="1282" to-port="0" />
		<edge from-layer="1256" from-port="5" to-layer="1261" to-port="0" />
		<edge from-layer="1257" from-port="0" to-layer="1258" to-port="0" />
		<edge from-layer="1258" from-port="1" to-layer="1260" to-port="0" />
		<edge from-layer="1259" from-port="0" to-layer="1260" to-port="1" />
		<edge from-layer="1260" from-port="2" to-layer="1261" to-port="1" />
		<edge from-layer="1261" from-port="2" to-layer="1263" to-port="0" />
		<edge from-layer="1262" from-port="0" to-layer="1263" to-port="1" />
		<edge from-layer="1263" from-port="2" to-layer="1264" to-port="0" />
		<edge from-layer="1264" from-port="1" to-layer="1269" to-port="0" />
		<edge from-layer="1265" from-port="0" to-layer="1269" to-port="1" />
		<edge from-layer="1266" from-port="0" to-layer="1269" to-port="2" />
		<edge from-layer="1267" from-port="0" to-layer="1269" to-port="3" />
		<edge from-layer="1268" from-port="0" to-layer="1269" to-port="4" />
		<edge from-layer="1269" from-port="5" to-layer="1274" to-port="0" />
		<edge from-layer="1270" from-port="0" to-layer="1271" to-port="0" />
		<edge from-layer="1271" from-port="1" to-layer="1273" to-port="0" />
		<edge from-layer="1272" from-port="0" to-layer="1273" to-port="1" />
		<edge from-layer="1273" from-port="2" to-layer="1274" to-port="1" />
		<edge from-layer="1274" from-port="2" to-layer="1276" to-port="0" />
		<edge from-layer="1275" from-port="0" to-layer="1276" to-port="1" />
		<edge from-layer="1276" from-port="2" to-layer="1281" to-port="0" />
		<edge from-layer="1277" from-port="0" to-layer="1281" to-port="1" />
		<edge from-layer="1278" from-port="0" to-layer="1281" to-port="2" />
		<edge from-layer="1279" from-port="0" to-layer="1281" to-port="3" />
		<edge from-layer="1280" from-port="0" to-layer="1281" to-port="4" />
		<edge from-layer="1281" from-port="5" to-layer="1282" to-port="1" />
		<edge from-layer="1282" from-port="2" to-layer="1287" to-port="0" />
		<edge from-layer="1283" from-port="0" to-layer="1287" to-port="1" />
		<edge from-layer="1284" from-port="0" to-layer="1287" to-port="2" />
		<edge from-layer="1285" from-port="0" to-layer="1287" to-port="3" />
		<edge from-layer="1286" from-port="0" to-layer="1287" to-port="4" />
		<edge from-layer="1287" from-port="5" to-layer="1288" to-port="2" />
		<edge from-layer="1288" from-port="3" to-layer="1293" to-port="0" />
		<edge from-layer="1289" from-port="0" to-layer="1290" to-port="0" />
		<edge from-layer="1290" from-port="1" to-layer="1292" to-port="0" />
		<edge from-layer="1291" from-port="0" to-layer="1292" to-port="1" />
		<edge from-layer="1292" from-port="2" to-layer="1293" to-port="1" />
		<edge from-layer="1293" from-port="2" to-layer="1295" to-port="0" />
		<edge from-layer="1294" from-port="0" to-layer="1295" to-port="1" />
		<edge from-layer="1295" from-port="2" to-layer="1296" to-port="0" />
		<edge from-layer="1296" from-port="1" to-layer="1301" to-port="0" />
		<edge from-layer="1297" from-port="0" to-layer="1301" to-port="1" />
		<edge from-layer="1298" from-port="0" to-layer="1301" to-port="2" />
		<edge from-layer="1299" from-port="0" to-layer="1301" to-port="3" />
		<edge from-layer="1300" from-port="0" to-layer="1301" to-port="4" />
		<edge from-layer="1301" from-port="5" to-layer="1476" to-port="0" />
		<edge from-layer="1301" from-port="5" to-layer="1306" to-port="0" />
		<edge from-layer="1302" from-port="0" to-layer="1303" to-port="0" />
		<edge from-layer="1303" from-port="1" to-layer="1305" to-port="0" />
		<edge from-layer="1304" from-port="0" to-layer="1305" to-port="1" />
		<edge from-layer="1305" from-port="2" to-layer="1306" to-port="1" />
		<edge from-layer="1306" from-port="2" to-layer="1308" to-port="0" />
		<edge from-layer="1307" from-port="0" to-layer="1308" to-port="1" />
		<edge from-layer="1308" from-port="2" to-layer="1309" to-port="0" />
		<edge from-layer="1309" from-port="1" to-layer="1314" to-port="0" />
		<edge from-layer="1310" from-port="0" to-layer="1314" to-port="1" />
		<edge from-layer="1311" from-port="0" to-layer="1314" to-port="2" />
		<edge from-layer="1312" from-port="0" to-layer="1314" to-port="3" />
		<edge from-layer="1313" from-port="0" to-layer="1314" to-port="4" />
		<edge from-layer="1314" from-port="5" to-layer="1319" to-port="0" />
		<edge from-layer="1315" from-port="0" to-layer="1316" to-port="0" />
		<edge from-layer="1316" from-port="1" to-layer="1318" to-port="0" />
		<edge from-layer="1317" from-port="0" to-layer="1318" to-port="1" />
		<edge from-layer="1318" from-port="2" to-layer="1319" to-port="1" />
		<edge from-layer="1319" from-port="2" to-layer="1321" to-port="0" />
		<edge from-layer="1320" from-port="0" to-layer="1321" to-port="1" />
		<edge from-layer="1321" from-port="2" to-layer="1322" to-port="0" />
		<edge from-layer="1322" from-port="1" to-layer="1327" to-port="0" />
		<edge from-layer="1323" from-port="0" to-layer="1327" to-port="1" />
		<edge from-layer="1324" from-port="0" to-layer="1327" to-port="2" />
		<edge from-layer="1325" from-port="0" to-layer="1327" to-port="3" />
		<edge from-layer="1326" from-port="0" to-layer="1327" to-port="4" />
		<edge from-layer="1327" from-port="5" to-layer="1332" to-port="0" />
		<edge from-layer="1328" from-port="0" to-layer="1329" to-port="0" />
		<edge from-layer="1329" from-port="1" to-layer="1331" to-port="0" />
		<edge from-layer="1330" from-port="0" to-layer="1331" to-port="1" />
		<edge from-layer="1331" from-port="2" to-layer="1332" to-port="1" />
		<edge from-layer="1332" from-port="2" to-layer="1334" to-port="0" />
		<edge from-layer="1333" from-port="0" to-layer="1334" to-port="1" />
		<edge from-layer="1334" from-port="2" to-layer="1335" to-port="0" />
		<edge from-layer="1335" from-port="2" to-layer="1336" to-port="2" />
		<edge from-layer="1336" from-port="3" to-layer="1341" to-port="0" />
		<edge from-layer="1336" from-port="3" to-layer="1346" to-port="0" />
		<edge from-layer="1337" from-port="0" to-layer="1341" to-port="1" />
		<edge from-layer="1338" from-port="0" to-layer="1341" to-port="2" />
		<edge from-layer="1338" from-port="0" to-layer="1561" to-port="1" />
		<edge from-layer="1338" from-port="0" to-layer="1346" to-port="1" />
		<edge from-layer="1338" from-port="0" to-layer="1564" to-port="1" />
		<edge from-layer="1339" from-port="0" to-layer="1341" to-port="3" />
		<edge from-layer="1340" from-port="0" to-layer="1346" to-port="4" />
		<edge from-layer="1340" from-port="0" to-layer="1341" to-port="4" />
		<edge from-layer="1341" from-port="5" to-layer="1342" to-port="1" />
		<edge from-layer="1342" from-port="2" to-layer="1348" to-port="0" />
		<edge from-layer="1343" from-port="0" to-layer="1347" to-port="0" />
		<edge from-layer="1344" from-port="0" to-layer="1346" to-port="2" />
		<edge from-layer="1345" from-port="0" to-layer="1346" to-port="3" />
		<edge from-layer="1346" from-port="5" to-layer="1347" to-port="1" />
		<edge from-layer="1347" from-port="2" to-layer="1348" to-port="1" />
		<edge from-layer="1348" from-port="2" to-layer="1350" to-port="0" />
		<edge from-layer="1349" from-port="0" to-layer="1350" to-port="1" />
		<edge from-layer="1350" from-port="2" to-layer="1534" to-port="0" />
		<edge from-layer="1351" from-port="0" to-layer="1352" to-port="0" />
		<edge from-layer="1352" from-port="1" to-layer="1354" to-port="0" />
		<edge from-layer="1353" from-port="0" to-layer="1354" to-port="1" />
		<edge from-layer="1354" from-port="2" to-layer="1355" to-port="1" />
		<edge from-layer="1355" from-port="2" to-layer="1357" to-port="0" />
		<edge from-layer="1356" from-port="0" to-layer="1357" to-port="1" />
		<edge from-layer="1357" from-port="2" to-layer="1358" to-port="0" />
		<edge from-layer="1358" from-port="1" to-layer="1363" to-port="0" />
		<edge from-layer="1359" from-port="0" to-layer="1363" to-port="1" />
		<edge from-layer="1360" from-port="0" to-layer="1363" to-port="2" />
		<edge from-layer="1361" from-port="0" to-layer="1363" to-port="3" />
		<edge from-layer="1362" from-port="0" to-layer="1363" to-port="4" />
		<edge from-layer="1363" from-port="5" to-layer="1368" to-port="0" />
		<edge from-layer="1364" from-port="0" to-layer="1365" to-port="0" />
		<edge from-layer="1365" from-port="1" to-layer="1367" to-port="0" />
		<edge from-layer="1366" from-port="0" to-layer="1367" to-port="1" />
		<edge from-layer="1367" from-port="2" to-layer="1368" to-port="1" />
		<edge from-layer="1368" from-port="2" to-layer="1370" to-port="0" />
		<edge from-layer="1369" from-port="0" to-layer="1370" to-port="1" />
		<edge from-layer="1370" from-port="2" to-layer="1371" to-port="0" />
		<edge from-layer="1371" from-port="1" to-layer="1376" to-port="0" />
		<edge from-layer="1372" from-port="0" to-layer="1376" to-port="1" />
		<edge from-layer="1373" from-port="0" to-layer="1376" to-port="2" />
		<edge from-layer="1374" from-port="0" to-layer="1376" to-port="3" />
		<edge from-layer="1375" from-port="0" to-layer="1376" to-port="4" />
		<edge from-layer="1376" from-port="5" to-layer="1381" to-port="0" />
		<edge from-layer="1377" from-port="0" to-layer="1378" to-port="0" />
		<edge from-layer="1378" from-port="1" to-layer="1380" to-port="0" />
		<edge from-layer="1379" from-port="0" to-layer="1380" to-port="1" />
		<edge from-layer="1380" from-port="2" to-layer="1381" to-port="1" />
		<edge from-layer="1381" from-port="2" to-layer="1383" to-port="0" />
		<edge from-layer="1382" from-port="0" to-layer="1383" to-port="1" />
		<edge from-layer="1383" from-port="2" to-layer="1384" to-port="0" />
		<edge from-layer="1384" from-port="1" to-layer="1389" to-port="0" />
		<edge from-layer="1385" from-port="0" to-layer="1389" to-port="1" />
		<edge from-layer="1386" from-port="0" to-layer="1389" to-port="2" />
		<edge from-layer="1387" from-port="0" to-layer="1389" to-port="3" />
		<edge from-layer="1388" from-port="0" to-layer="1389" to-port="4" />
		<edge from-layer="1389" from-port="5" to-layer="1394" to-port="0" />
		<edge from-layer="1390" from-port="0" to-layer="1391" to-port="0" />
		<edge from-layer="1391" from-port="1" to-layer="1393" to-port="0" />
		<edge from-layer="1392" from-port="0" to-layer="1393" to-port="1" />
		<edge from-layer="1393" from-port="2" to-layer="1394" to-port="1" />
		<edge from-layer="1394" from-port="2" to-layer="1396" to-port="0" />
		<edge from-layer="1395" from-port="0" to-layer="1396" to-port="1" />
		<edge from-layer="1396" from-port="2" to-layer="1397" to-port="0" />
		<edge from-layer="1397" from-port="1" to-layer="1402" to-port="0" />
		<edge from-layer="1398" from-port="0" to-layer="1402" to-port="1" />
		<edge from-layer="1399" from-port="0" to-layer="1402" to-port="2" />
		<edge from-layer="1400" from-port="0" to-layer="1402" to-port="3" />
		<edge from-layer="1401" from-port="0" to-layer="1402" to-port="4" />
		<edge from-layer="1402" from-port="5" to-layer="1407" to-port="0" />
		<edge from-layer="1403" from-port="0" to-layer="1404" to-port="0" />
		<edge from-layer="1404" from-port="1" to-layer="1406" to-port="0" />
		<edge from-layer="1405" from-port="0" to-layer="1406" to-port="1" />
		<edge from-layer="1406" from-port="2" to-layer="1407" to-port="1" />
		<edge from-layer="1407" from-port="2" to-layer="1409" to-port="0" />
		<edge from-layer="1408" from-port="0" to-layer="1409" to-port="1" />
		<edge from-layer="1409" from-port="2" to-layer="1411" to-port="0" />
		<edge from-layer="1410" from-port="0" to-layer="1411" to-port="1" />
		<edge from-layer="1410" from-port="0" to-layer="1471" to-port="1" />
		<edge from-layer="1410" from-port="0" to-layer="1531" to-port="1" />
		<edge from-layer="1411" from-port="2" to-layer="1532" to-port="0" />
		<edge from-layer="1412" from-port="0" to-layer="1413" to-port="0" />
		<edge from-layer="1413" from-port="1" to-layer="1415" to-port="0" />
		<edge from-layer="1414" from-port="0" to-layer="1415" to-port="1" />
		<edge from-layer="1415" from-port="2" to-layer="1416" to-port="1" />
		<edge from-layer="1416" from-port="2" to-layer="1418" to-port="0" />
		<edge from-layer="1417" from-port="0" to-layer="1418" to-port="1" />
		<edge from-layer="1418" from-port="2" to-layer="1419" to-port="0" />
		<edge from-layer="1419" from-port="1" to-layer="1424" to-port="0" />
		<edge from-layer="1420" from-port="0" to-layer="1424" to-port="1" />
		<edge from-layer="1421" from-port="0" to-layer="1424" to-port="2" />
		<edge from-layer="1422" from-port="0" to-layer="1424" to-port="3" />
		<edge from-layer="1423" from-port="0" to-layer="1424" to-port="4" />
		<edge from-layer="1424" from-port="5" to-layer="1429" to-port="0" />
		<edge from-layer="1425" from-port="0" to-layer="1426" to-port="0" />
		<edge from-layer="1426" from-port="1" to-layer="1428" to-port="0" />
		<edge from-layer="1427" from-port="0" to-layer="1428" to-port="1" />
		<edge from-layer="1428" from-port="2" to-layer="1429" to-port="1" />
		<edge from-layer="1429" from-port="2" to-layer="1431" to-port="0" />
		<edge from-layer="1430" from-port="0" to-layer="1431" to-port="1" />
		<edge from-layer="1431" from-port="2" to-layer="1432" to-port="0" />
		<edge from-layer="1432" from-port="1" to-layer="1437" to-port="0" />
		<edge from-layer="1433" from-port="0" to-layer="1437" to-port="1" />
		<edge from-layer="1434" from-port="0" to-layer="1437" to-port="2" />
		<edge from-layer="1435" from-port="0" to-layer="1437" to-port="3" />
		<edge from-layer="1436" from-port="0" to-layer="1437" to-port="4" />
		<edge from-layer="1437" from-port="5" to-layer="1442" to-port="0" />
		<edge from-layer="1438" from-port="0" to-layer="1439" to-port="0" />
		<edge from-layer="1439" from-port="1" to-layer="1441" to-port="0" />
		<edge from-layer="1440" from-port="0" to-layer="1441" to-port="1" />
		<edge from-layer="1441" from-port="2" to-layer="1442" to-port="1" />
		<edge from-layer="1442" from-port="2" to-layer="1444" to-port="0" />
		<edge from-layer="1443" from-port="0" to-layer="1444" to-port="1" />
		<edge from-layer="1444" from-port="2" to-layer="1445" to-port="0" />
		<edge from-layer="1445" from-port="1" to-layer="1450" to-port="0" />
		<edge from-layer="1446" from-port="0" to-layer="1450" to-port="1" />
		<edge from-layer="1447" from-port="0" to-layer="1450" to-port="2" />
		<edge from-layer="1448" from-port="0" to-layer="1450" to-port="3" />
		<edge from-layer="1449" from-port="0" to-layer="1450" to-port="4" />
		<edge from-layer="1450" from-port="5" to-layer="1455" to-port="0" />
		<edge from-layer="1451" from-port="0" to-layer="1452" to-port="0" />
		<edge from-layer="1452" from-port="1" to-layer="1454" to-port="0" />
		<edge from-layer="1453" from-port="0" to-layer="1454" to-port="1" />
		<edge from-layer="1454" from-port="2" to-layer="1455" to-port="1" />
		<edge from-layer="1455" from-port="2" to-layer="1457" to-port="0" />
		<edge from-layer="1456" from-port="0" to-layer="1457" to-port="1" />
		<edge from-layer="1457" from-port="2" to-layer="1458" to-port="0" />
		<edge from-layer="1458" from-port="1" to-layer="1463" to-port="0" />
		<edge from-layer="1459" from-port="0" to-layer="1463" to-port="1" />
		<edge from-layer="1460" from-port="0" to-layer="1463" to-port="2" />
		<edge from-layer="1461" from-port="0" to-layer="1463" to-port="3" />
		<edge from-layer="1462" from-port="0" to-layer="1463" to-port="4" />
		<edge from-layer="1463" from-port="5" to-layer="1468" to-port="0" />
		<edge from-layer="1464" from-port="0" to-layer="1465" to-port="0" />
		<edge from-layer="1465" from-port="1" to-layer="1467" to-port="0" />
		<edge from-layer="1466" from-port="0" to-layer="1467" to-port="1" />
		<edge from-layer="1467" from-port="2" to-layer="1468" to-port="1" />
		<edge from-layer="1468" from-port="2" to-layer="1470" to-port="0" />
		<edge from-layer="1469" from-port="0" to-layer="1470" to-port="1" />
		<edge from-layer="1470" from-port="2" to-layer="1471" to-port="0" />
		<edge from-layer="1471" from-port="2" to-layer="1532" to-port="1" />
		<edge from-layer="1472" from-port="0" to-layer="1473" to-port="0" />
		<edge from-layer="1473" from-port="1" to-layer="1475" to-port="0" />
		<edge from-layer="1474" from-port="0" to-layer="1475" to-port="1" />
		<edge from-layer="1475" from-port="2" to-layer="1476" to-port="1" />
		<edge from-layer="1476" from-port="2" to-layer="1478" to-port="0" />
		<edge from-layer="1477" from-port="0" to-layer="1478" to-port="1" />
		<edge from-layer="1478" from-port="2" to-layer="1479" to-port="0" />
		<edge from-layer="1479" from-port="1" to-layer="1484" to-port="0" />
		<edge from-layer="1480" from-port="0" to-layer="1484" to-port="1" />
		<edge from-layer="1481" from-port="0" to-layer="1484" to-port="2" />
		<edge from-layer="1482" from-port="0" to-layer="1484" to-port="3" />
		<edge from-layer="1483" from-port="0" to-layer="1484" to-port="4" />
		<edge from-layer="1484" from-port="5" to-layer="1489" to-port="0" />
		<edge from-layer="1485" from-port="0" to-layer="1486" to-port="0" />
		<edge from-layer="1486" from-port="1" to-layer="1488" to-port="0" />
		<edge from-layer="1487" from-port="0" to-layer="1488" to-port="1" />
		<edge from-layer="1488" from-port="2" to-layer="1489" to-port="1" />
		<edge from-layer="1489" from-port="2" to-layer="1491" to-port="0" />
		<edge from-layer="1490" from-port="0" to-layer="1491" to-port="1" />
		<edge from-layer="1491" from-port="2" to-layer="1492" to-port="0" />
		<edge from-layer="1492" from-port="1" to-layer="1497" to-port="0" />
		<edge from-layer="1493" from-port="0" to-layer="1497" to-port="1" />
		<edge from-layer="1494" from-port="0" to-layer="1497" to-port="2" />
		<edge from-layer="1495" from-port="0" to-layer="1497" to-port="3" />
		<edge from-layer="1496" from-port="0" to-layer="1497" to-port="4" />
		<edge from-layer="1497" from-port="5" to-layer="1502" to-port="0" />
		<edge from-layer="1498" from-port="0" to-layer="1499" to-port="0" />
		<edge from-layer="1499" from-port="1" to-layer="1501" to-port="0" />
		<edge from-layer="1500" from-port="0" to-layer="1501" to-port="1" />
		<edge from-layer="1501" from-port="2" to-layer="1502" to-port="1" />
		<edge from-layer="1502" from-port="2" to-layer="1504" to-port="0" />
		<edge from-layer="1503" from-port="0" to-layer="1504" to-port="1" />
		<edge from-layer="1504" from-port="2" to-layer="1505" to-port="0" />
		<edge from-layer="1505" from-port="1" to-layer="1510" to-port="0" />
		<edge from-layer="1506" from-port="0" to-layer="1510" to-port="1" />
		<edge from-layer="1507" from-port="0" to-layer="1510" to-port="2" />
		<edge from-layer="1508" from-port="0" to-layer="1510" to-port="3" />
		<edge from-layer="1509" from-port="0" to-layer="1510" to-port="4" />
		<edge from-layer="1510" from-port="5" to-layer="1515" to-port="0" />
		<edge from-layer="1511" from-port="0" to-layer="1512" to-port="0" />
		<edge from-layer="1512" from-port="1" to-layer="1514" to-port="0" />
		<edge from-layer="1513" from-port="0" to-layer="1514" to-port="1" />
		<edge from-layer="1514" from-port="2" to-layer="1515" to-port="1" />
		<edge from-layer="1515" from-port="2" to-layer="1517" to-port="0" />
		<edge from-layer="1516" from-port="0" to-layer="1517" to-port="1" />
		<edge from-layer="1517" from-port="2" to-layer="1518" to-port="0" />
		<edge from-layer="1518" from-port="1" to-layer="1523" to-port="0" />
		<edge from-layer="1519" from-port="0" to-layer="1523" to-port="1" />
		<edge from-layer="1520" from-port="0" to-layer="1523" to-port="2" />
		<edge from-layer="1521" from-port="0" to-layer="1523" to-port="3" />
		<edge from-layer="1522" from-port="0" to-layer="1523" to-port="4" />
		<edge from-layer="1523" from-port="5" to-layer="1528" to-port="0" />
		<edge from-layer="1524" from-port="0" to-layer="1525" to-port="0" />
		<edge from-layer="1525" from-port="1" to-layer="1527" to-port="0" />
		<edge from-layer="1526" from-port="0" to-layer="1527" to-port="1" />
		<edge from-layer="1527" from-port="2" to-layer="1528" to-port="1" />
		<edge from-layer="1528" from-port="2" to-layer="1530" to-port="0" />
		<edge from-layer="1529" from-port="0" to-layer="1530" to-port="1" />
		<edge from-layer="1530" from-port="2" to-layer="1531" to-port="0" />
		<edge from-layer="1531" from-port="2" to-layer="1532" to-port="2" />
		<edge from-layer="1532" from-port="3" to-layer="1533" to-port="0" />
		<edge from-layer="1533" from-port="1" to-layer="1534" to-port="1" />
		<edge from-layer="1534" from-port="2" to-layer="1536" to-port="0" />
		<edge from-layer="1535" from-port="0" to-layer="1536" to-port="1" />
		<edge from-layer="1536" from-port="2" to-layer="1539" to-port="0" />
		<edge from-layer="1537" from-port="0" to-layer="1539" to-port="1" />
		<edge from-layer="1538" from-port="0" to-layer="1539" to-port="2" />
		<edge from-layer="1539" from-port="4" to-layer="1541" to-port="0" />
		<edge from-layer="1539" from-port="4" to-layer="1549" to-port="0" />
		<edge from-layer="1539" from-port="3" to-layer="1559" to-port="0" />
		<edge from-layer="1540" from-port="0" to-layer="1541" to-port="1" />
		<edge from-layer="1541" from-port="2" to-layer="1542" to-port="0" />
		<edge from-layer="1542" from-port="1" to-layer="1544" to-port="0" />
		<edge from-layer="1543" from-port="0" to-layer="1544" to-port="1" />
		<edge from-layer="1544" from-port="3" to-layer="1546" to-port="0" />
		<edge from-layer="1545" from-port="0" to-layer="1546" to-port="1" />
		<edge from-layer="1546" from-port="2" to-layer="1548" to-port="0" />
		<edge from-layer="1546" from-port="2" to-layer="1549" to-port="1" />
		<edge from-layer="1547" from-port="0" to-layer="1548" to-port="1" />
		<edge from-layer="1548" from-port="2" to-layer="1556" to-port="0" />
		<edge from-layer="1549" from-port="2" to-layer="1551" to-port="0" />
		<edge from-layer="1550" from-port="0" to-layer="1551" to-port="1" />
		<edge from-layer="1551" from-port="2" to-layer="1552" to-port="0" />
		<edge from-layer="1552" from-port="1" to-layer="1554" to-port="0" />
		<edge from-layer="1553" from-port="0" to-layer="1554" to-port="1" />
		<edge from-layer="1554" from-port="3" to-layer="1556" to-port="1" />
		<edge from-layer="1554" from-port="2" to-layer="1560" to-port="0" />
		<edge from-layer="1554" from-port="3" to-layer="1563" to-port="0" />
		<edge from-layer="1555" from-port="0" to-layer="1556" to-port="2" />
		<edge from-layer="1556" from-port="3" to-layer="1558" to-port="0" />
		<edge from-layer="1557" from-port="0" to-layer="1558" to-port="1" />
		<edge from-layer="1558" from-port="2" to-layer="1559" to-port="1" />
		<edge from-layer="1559" from-port="2" to-layer="1566" to-port="0" />
		<edge from-layer="1560" from-port="1" to-layer="1561" to-port="0" />
		<edge from-layer="1561" from-port="2" to-layer="1566" to-port="1" />
		<edge from-layer="1562" from-port="0" to-layer="1563" to-port="1" />
		<edge from-layer="1563" from-port="2" to-layer="1564" to-port="0" />
		<edge from-layer="1564" from-port="2" to-layer="1565" to-port="0" />
		<edge from-layer="1565" from-port="1" to-layer="1566" to-port="2" />
		<edge from-layer="1566" from-port="3" to-layer="1567" to-port="0" />
		<edge from-layer="1567" from-port="1" to-layer="1568" to-port="0" />
	</edges>
	<rt_info>
		<Runtime_version value="2026.1.0-21367-63e31528c62-releases/2026/1" />
		<conversion_parameters>
			<input_model value="DIR\Bolinha_Rosa.onnx" />
			<is_python_object value="False" />
		</conversion_parameters>
		<framework>
			<args value="{'batch': 1, 'half': True, 'dynamic': False, 'simplify': True, 'opset': 17, 'nms': False}" />
			<author value="Ultralytics" />
			<batch value="1" />
			<channels value="3" />
			<date value="2026-04-13T12:30:54.331874" />
			<description value="Ultralytics YOLO26n model trained on C:/Projeto_Core/Core_Aim_Phantom/Core_Aim/bin/x64/Release/net9.0-windows10.0.22621.0/win-x64/CapturedImages/data.yaml" />
			<docs value="https://docs.ultralytics.com" />
			<end2end value="True" />
			<imgsz value="[320, 320]" />
			<license value="AGPL-3.0 License (https://ultralytics.com/license)" />
			<names value="{0: 'enemy'}" />
			<stride value="32" />
			<task value="detect" />
			<version value="8.4.19" />
		</framework>
		<nncf>
			<friendly_names_were_updated value="True" />
			<quantization>
				<advanced_parameters value="{}" />
				<fast_bias_correction value="True" />
				<ignored_scope value="None" />
				<model_type value="None" />
				<preset value="mixed" />
				<subset_size value="300" />
				<target_device value="ANY" />
			</quantization>
			<version value="3.1.0" />
		</nncf>
	</rt_info>
</net>
